self_para_.ckpt (torch, 283733 bytes, 336 tensors)

x_embed.weight f4 [8, 2]
000000 3d 66 f3 bd db 02 8f 3e d4 cf 22 3f 41 84 53 3c
       -0.11884735 0.27931866 0.6359837 0.01290995
000010 fb 39 86 3d e8 67 38 3f 4a a3 f5 bd cf 10 ba be
       0.06554028 0.7203355 -0.119940355 -0.3634095
000020 b4 c7 f4 be 64 ce 97 be ed e5 c9 3e ad fb 13 bf
       -0.4780861 -0.2964965 0.39433232 -0.578059
000030 23 3d 6d 3e 8c 46 f8 3e 37 d8 db be 92 66 33 3d
       0.23167853 0.48491323 -0.42938396 0.04379899

x_embed.bias f4 [8]
000000 05 f4 ae be ef ad 2d 3f e5 f7 f5 3b b0 77 26 bf
       -0.34170547 0.67843527 0.007506358 -0.6502638
000010 69 70 ea 3e d7 62 17 be 2a d6 58 be 2f c4 e0 be
       0.45788887 -0.14783798 -0.21175447 -0.43899676

encoder.encode_blocks.0.t_construct.conv_layers.conv_layers.0.downConv.weight f4 [2, 2, 2]
000000 ec 62 e8 3e 99 9f 0b 3e 2f c0 2d 3e e7 c8 03 bf
       0.4538797 0.136351 0.16967843 -0.5147843
000010 26 48 b3 bd 72 32 a2 3e ac 43 6c 3c 40 37 49 bd
       -0.087539956 0.31679112 0.014420431 -0.049124956

encoder.encode_blocks.0.t_construct.conv_layers.conv_layers.0.downConv.bias f4 [2]
000000 a4 14 8e 3c 35 2c 35 3e
       0.017343827 0.17692645

encoder.encode_blocks.0.t_construct.conv_layers.conv_layers.0.norm.weight f4 [2]
000000 2b c1 76 3f c3 9f 7c 3f
       0.963885 0.9868128

encoder.encode_blocks.0.t_construct.conv_layers.conv_layers.0.norm.bias f4 [2]
000000 d5 9a c3 bc a7 00 c9 bc
       -0.02387754 -0.024536444

encoder.encode_blocks.0.t_construct.conv_layers.conv_layers.0.norm.running_mean f4 [2]
000000 3e 2c 79 c0 e7 0b e1 3f
       -3.8933253 1.7581757

encoder.encode_blocks.0.t_construct.conv_layers.conv_layers.0.norm.running_var f4 [2]
000000 cd 06 a6 40 79 ea d7 3e
       5.18833 0.42171076

encoder.encode_blocks.0.t_construct.conv_layers.up.weight f4 [8, 2]
000000 de b2 f2 be 14 32 b0 3d 68 05 17 bf 1c 4d 9d be
       -0.4740209 0.08603302 -0.58992624 -0.30722892
000010 b6 25 0b bf b3 9c b8 3e b4 1b e7 3d a5 d9 20 3f
       -0.5435442 0.36057052 0.11284581 0.628321
000020 61 b3 18 bf 2e 26 9c 3e a2 a0 14 bf f5 0b 2d bf
       -0.5964871 0.3049788 -0.58057606 -0.6759637
000030 74 21 dd bd 56 f4 0d 3e 26 ca 07 bf 5a ad bd 3e
       -0.10797396 0.13862738 -0.5304283 0.3704632

encoder.encode_blocks.0.t_construct.conv_layers.up.bias f4 [8]
000000 3f 39 17 3e 04 c4 23 3f 28 23 98 bd 0d 8c 16 3f
       0.14767931 0.6397097 -0.074285805 0.5880745
000010 cc 90 09 bf a8 30 30 3f 3f 19 10 3f be c2 e8 3d
       -0.5373657 0.68824244 0.5628852 0.11365269

encoder.encode_blocks.0.t_construct.conv_layers.down.weight f4 [2, 8]
000000 8e 83 45 be 27 22 b0 3e 8f 98 d2 3d a0 f0 ee bb
       -0.19288465 0.34401056 0.102830045 -0.0072918683
000010 d6 45 10 be cd e8 c0 bd 5d 08 4a 3e 7e 22 6e 3e
       -0.1408914 -0.09419403 0.19729753 0.23255345
000020 61 6e d3 3d 62 c5 a1 3e 3b 8c 8c bd 36 44 49 be
       0.103237875 0.31595904 -0.06862684 -0.19654927
000030 33 db a4 be 5a c1 a4 3e 45 38 96 bc f9 22 81 be
       -0.32198486 0.32178766 -0.018337378 -0.25221995

encoder.encode_blocks.0.t_construct.conv_layers.down.bias f4 [2]
000000 49 f0 96 be 57 b2 83 3e
       -0.29480198 0.25722

encoder.encode_blocks.0.t_construct.conv_layers.norm.weight f4 [8]
000000 6a 88 82 3f f1 b3 81 3f 19 b1 80 3f 2f 77 78 3f
       1.019788 1.0133039 1.0054046 0.9705686
000010 6a 60 84 3f 49 0c 79 3f c8 67 81 3f 59 ea 81 3f
       1.0341923 0.9728437 1.0109797 1.0149642

encoder.encode_blocks.0.t_construct.conv_layers.norm.bias f4 [8]
000000 a7 ff 5d bc 37 72 e2 bb 73 da 01 bc 5d 57 2f bb
       -0.013549722 -0.006910588 -0.0079256175 -0.0026754953
000010 fe 0f c3 bc d3 ce ae 3c 96 db 5c bb 4f 90 0e 3b
       -0.023811337 0.021338856 -0.003370022 0.0021753495

encoder.encode_blocks.0.t_feature.self_attn.query_projection.weight f4 [8, 8]
000000 5d 2e 6c 3e 83 52 44 be f1 90 13 3e 40 7b 75 be
       0.23064561 -0.191721 0.1441076 -0.23972797
000010 a9 ad 94 3e 82 55 7b bd 36 11 8e 3e e6 93 a3 be
       0.29038742 -0.061360843 0.27747506 -0.31948775
000020 13 eb ee 3d 5c c9 7f 3d 1b 8e 90 be 83 18 bb bc
       0.116659306 0.06244789 -0.28233418 -0.022838837
000030 89 56 7a be 1f c4 0b be a6 42 9a 3e 57 06 42 be
       -0.24447073 -0.13649033 0.30128974 -0.18947731
000040 f8 27 01 be eb 2b e4 bd 74 90 47 3e 51 9a b4 3d
       -0.12612903 -0.11141189 0.19488698 0.08818496
000050 5a c4 6b 3e 45 f5 95 be 9e be 72 3e 9a 0e ba 3e
       0.23024121 -0.29288688 0.23705527 0.36339265
000060 fc a9 9d 3e 58 ce 28 be 11 23 74 3e d1 b0 83 be
       0.3079375 -0.16484964 0.23841502 -0.25720838
000070 f6 3b ad be 2f 36 f7 bb f5 23 30 be b0 40 9c 3e
       -0.3383481 -0.007544301 -0.17201217 0.30518103
000080 bf 18 84 be 41 6a d8 3d 9b 2a d2 3d 17 5b 26 3d
       -0.2580013 0.10567141 0.102620326 0.040614214
000090 2e f8 c6 bd 95 fc 72 3e 88 73 3a 3e 86 8f 8a bd
       -0.09715305 0.23729165 0.18208134 -0.06765656
0000a0 99 82 a9 3e cf f7 aa 3d 27 48 ba be bc 18 a1 be
       0.3310745 0.08348047 -0.36383173 -0.31464183
0000b0 99 72 ab be fc 0f a8 3e 0e 0b 66 be 2e 89 96 3e
       -0.3348587 0.32824695 -0.22465155 0.29401535
0000c0 8a f4 c7 bc 97 70 9e be 07 a7 6a 3e db cb 0b 3e
       -0.024408597 -0.30945274 0.22915278 0.13651983
0000d0 93 01 a6 3e 23 5a 9b be 09 6e 26 be 26 bd 0a be
       0.32423076 -0.30342206 -0.16252913 -0.13548717
0000e0 bc 28 4a 3e 5b 54 a5 3e d9 18 88 3e ac 54 b0 3e
       0.19742101 0.3229092 0.26581457 0.344396
0000f0 44 46 96 3d 07 3a 3b 3e 4d 58 8f 3e 5e 86 8b 3e
       0.07337621 0.18283854 0.27997056 0.27250952

encoder.encode_blocks.0.t_feature.self_attn.query_projection.bias f4 [8]
000000 74 91 f9 3d eb 08 46 3e 9e 87 45 bc a6 d6 44 3e
       0.12185946 0.1933934 -0.012056259 0.19222507
000010 f4 63 0c bd 5b c8 4b bc db 35 f3 ba b0 a2 8d 3e
       -0.03427501 -0.012437905 -0.0018555479 0.27663183

encoder.encode_blocks.0.t_feature.self_attn.key_projection.weight f4 [8, 8]
000000 42 3d a6 3e 54 55 8f 3e 37 2c 39 be 3d 24 88 3e
       0.3246861 0.27994788 -0.18083273 0.26590148
000010 b1 4f 1d 3e ac 53 96 bd f6 cc 12 bd f5 a7 8d be
       0.15362431 -0.07340178 -0.035839997 -0.27667204
000020 50 7d a1 3e e3 b7 a7 be 73 3e b6 be 8b 32 88 3d
       0.31540918 -0.32757482 -0.3559452 0.06650265
000030 9b 92 09 3e 66 87 eb bd 83 c0 27 3e ad 95 45 be
       0.13434832 -0.115004346 0.16382031 -0.19295378
000040 6c 04 e2 3c 64 81 94 be 5a eb 77 3e 26 8b 22 be
       0.02759 -0.29004967 0.24210873 -0.15873393
000050 b6 07 68 3e b6 71 aa be 5c 4a 78 bd 61 95 23 3d
       0.22659191 -0.3328988 -0.06061779 0.03993738
000060 a4 24 14 be 73 91 f3 3d cf 02 39 3d 9a b8 13 be
       -0.14467102 0.118929766 0.045168694 -0.14425889
000070 57 a3 98 be e4 35 a2 be 6e 26 74 be db 7c a4 3e
       -0.29812118 -0.3168174 -0.23842785 0.32126507
000080 e9 5e 25 3e 28 c5 b6 be 34 71 0a 3b a9 f3 34 be
       0.16149487 -0.35697293 0.0021124603 -0.17671074
000090 8f 46 4e 3e 86 62 02 be 32 0b 88 be 8f af aa 3e
       0.20144103 -0.12732896 -0.2657104 0.33337066
0000a0 f6 b6 4f 3e 30 b9 b1 be 2d a5 96 bb cb 5d 43 bd
       0.20284638 -0.347116 -0.004597327 -0.04769687
0000b0 2f 0c 7a 3c ab 34 23 be eb fb fd 3d bd 82 c3 3d
       0.015261694 -0.1593806 0.12401565 0.09546421
0000c0 92 88 9c 3c ab 5a a6 3c 9b b0 3a 3d 01 78 a2 3d
       0.01910809 0.020306906 0.04557858 0.07933045
0000d0 d2 06 2d 3e 01 83 a3 be 6f 29 8b 3e 69 f7 4c be
       0.16897133 -0.31935886 0.2718005 -0.20016254
0000e0 3e b0 42 be 0f c5 98 bd 9e f0 ac 3c 90 bd 99 3e
       -0.19012544 -0.07459461 0.021110829 0.30027437
0000f0 8e 8d 4b 3e f9 ca 71 be c8 70 58 3c 50 d6 9a be
       0.19878218 -0.23612584 0.013210483 -0.30241632

encoder.encode_blocks.0.t_feature.self_attn.key_projection.bias f4 [8]
000000 23 ab 79 bd 97 f1 ad 3e a2 ab 8b be 7c d8 32 be
       -0.060954224 0.3397338 -0.27279383 -0.17465395
000010 c1 ef 79 bd 9f 54 9f 3e 36 e1 bc bd 56 ed 4f 3e
       -0.061019663 0.31119248 -0.09222643 0.2030538

encoder.encode_blocks.0.t_feature.self_attn.value_projection.weight f4 [8, 8]
000000 fb e0 b0 be b7 42 62 3b 1b d9 64 3c 8a dd fb 3d
       -0.34546646 0.0034524628 0.013967778 0.122981146
000010 10 88 22 be 8e f5 12 bd bb ef 6f be d2 9f 7a 3d
       -0.15872216 -0.03587871 -0.23431294 0.061187573
000020 51 70 25 3c 8f fb 02 be fb 93 b3 be 29 01 3d 3e
       0.010097579 -0.12791274 -0.35073838 0.18457474
000030 72 d4 10 be 8f 85 94 3e ba a9 86 3d 63 24 89 3e
       -0.14143541 0.29008147 0.065753415 0.26785573
000040 48 1f 6f 3e 36 93 a2 bd 3e 46 03 bd ff c0 9d 3e
       0.23351777 -0.079382345 -0.03204941 0.30811307
000050 9f 40 2c 3e fd c4 c3 bd e4 1d c6 be 99 df 74 3e
       0.16821526 -0.09559057 -0.3869468 0.2391342
000060 0e 9a b1 3e 50 c4 50 3e 78 d2 5b 3e 0f 28 3d 3e
       0.34687847 0.20387387 0.21467006 0.18472312
000070 69 a6 9d 3e dc 55 b5 3e 76 93 71 3e bd 2a d6 3d
       0.30791023 0.35417068 0.23591408 0.104573704
000080 d6 b4 6f 3e 40 af 3a 3d 77 66 10 bd ca 48 b5 be
       0.23408827 0.045577288 -0.035253968 -0.35407096
000090 c3 f4 3a 3e 1a df ac 3d 7f fe cb bc 90 c9 2e be
       0.18257432 0.08440991 -0.024901627 -0.17069077
0000a0 c8 85 4e be 6b e9 7d 3b 92 3f 98 3e ec 5e 25 3d
       -0.20168221 0.0038743864 0.29736 0.040373728
0000b0 d6 6f 38 3e 7c c5 1d 3e 9b 35 33 3e ba 6a 0c 3e
       0.18011412 0.15407366 0.17500918 0.13712588
0000c0 4c e0 08 3e 36 cb 28 be dd 62 5d 3d fc 08 95 be
       0.13366812 -0.16483769 0.05404936 -0.29108417
0000d0 c6 af 9d 3e e2 8f 79 3e bf 21 14 3e a2 6f a9 3e
       0.30798167 0.24371293 0.14465998 0.33092982
0000e0 dc 32 8e 3e e5 c2 64 be 1b b2 76 be e7 51 9d 3d
       0.27773178 -0.22339971 -0.2409138 0.07681637
0000f0 f1 5f 76 bd db da 2b 3d 92 ef f2 bd 8f 9c 8f 3e
       -0.06015009 0.041956764 -0.11862101 0.28049132

encoder.encode_blocks.0.t_feature.self_attn.value_projection.bias f4 [8]
000000 9c 57 2b 3d c7 9d ab be bf 7e 81 3d ad fa 42 3e
       0.041831598 -0.33518812 0.06323003 0.19040938
000010 86 f9 71 3d 33 5b 43 be 87 72 04 3e b0 c7 9d 3e
       0.059075855 -0.19077758 0.12934314 0.30816412

encoder.encode_blocks.0.t_feature.self_attn.out_projection.weight f4 [8, 8]
000000 fb 0e 4f bd 44 0a be 3d 0e b9 a5 be 87 e6 27 be
       -0.050551396 0.09279302 -0.32367748 -0.16396533
000010 5c 10 1a 3d d7 a8 71 3e 55 10 4f 3e e8 35 a8 3e
       0.037613258 0.23599564 0.20221074 0.32853627
000020 bf b6 6b 3e 36 6d 80 be 46 ac 08 3e 2b 3f a6 3e
       0.23018931 -0.2508332 0.13346967 0.32470068
000030 6c c0 b8 bd fa 89 f6 3c 45 32 9c 3e ae f7 07 3e
       -0.090210766 0.03009509 0.30507103 0.13278076
000040 35 83 ab bd c3 4d 82 3e 70 29 8d be 10 91 1b 3b
       -0.08374635 0.25449952 -0.27570677 0.0023737587
000050 18 c4 53 be 6b a4 7c 3e 19 da 6a 3e 34 4a 39 3e
       -0.20680273 0.24672095 0.2293476 0.18094712
000060 9e db 94 be 61 fa 1b bc c8 83 38 3d 15 88 ba bd
       -0.29073805 -0.009520144 0.04504755 -0.09107987
000070 29 9a 5b 3d 82 24 a8 3e 66 71 b0 3d 1b 0b 37 3e
       0.053613815 0.32840353 0.08615379 0.1787533
000080 b6 67 9d be 45 0d 95 be ae 96 40 be 4f b1 9e 3e
       -0.30743188 -0.29111686 -0.1880748 0.3099465
000090 73 1e 66 3e 61 3d 88 3e 50 43 82 be 1c a6 bb be
       0.22472553 0.26609328 -0.2544198 -0.3665017
0000a0 35 55 56 be da e6 0b be be 40 ed bd 74 68 a9 3e
       -0.20930941 -0.13662282 -0.11584614 0.33087504
0000b0 3b f0 ad 3e 74 af 2d 3e 86 bc 83 bd a7 26 00 bb
       0.33972344 0.16961461 -0.06432442 -0.0019554289
0000c0 17 cb bb 3e ba ff ce bc aa 57 83 be 99 e8 3d 3e
       0.36678383 -0.025268424 -0.2565282 0.1854576
0000d0 17 ee 88 be d1 a5 06 be 24 22 92 3e 4b 99 d7 3d
       -0.26744148 -0.13149191 0.28541672 0.10527285
0000e0 e8 57 f7 3d 17 0b 4b be 08 c6 e6 bd 32 aa ad 3e
       0.12077314 -0.19828449 -0.1126824 0.3391891
0000f0 c7 d8 fb 3d e4 2f 9b 3e 0d 2a 64 3c 80 dd 16 3e
       0.12297206 0.30309975 0.013926041 0.14732933

encoder.encode_blocks.0.t_feature.self_attn.out_projection.bias f4 [8]
000000 3e db 4b bc 36 9a 27 bd a3 29 ad be e5 ff 86 be
       -0.012442408 -0.04091855 -0.3382083 -0.26367107
000010 23 df 8e be 87 bd b9 3d 82 8f 65 be d3 80 89 3e
       -0.27904615 0.090693526 -0.22418025 0.26856098

encoder.encode_blocks.0.t_feature.pos_ffn.w_1.weight f4 [8, 8]
000000 1e 3b 94 3e 1a f4 e2 3d b3 50 8e be f3 ca c2 bd
       0.28951353 0.11081715 -0.27795944 -0.09511366
000010 05 ca 9f 3e 26 1b 32 bc d6 31 7a be da 22 04 3e
       0.31208816 -0.0108707305 -0.24433073 0.1290392
000020 ab 50 24 be 15 c1 69 3e 95 5f 8f be de 94 28 3e
       -0.16046397 0.22827561 -0.2800261 0.16463038
000030 6a 3f a1 be ab 32 7d be c4 99 17 be 62 87 2f 3e
       -0.31493694 -0.2472636 -0.1480475 0.17141488
000040 4b f0 ac be 0e 43 a7 bd 99 80 61 be 7c 79 39 3e
       -0.3377708 -0.081670865 -0.22021712 0.18112749
000050 50 99 04 3e d2 7c 35 be 68 86 97 be 6b ea 37 3e
       0.12949109 -0.17723396 -0.2959473 0.17960517
000060 65 de 0b be 04 c4 c7 bd 0c 16 88 be b2 10 48 bd
       -0.13659056 -0.09754184 -0.2657932 -0.048844047
000070 59 c2 6b be c4 d9 9e 3c a2 37 8c 3e d8 38 56 be
       -0.23023356 0.019390948 0.27386194 -0.20920122
000080 a5 7b 5b bd 14 7e 77 be 8b 94 15 3e c6 d8 b9 bd
       -0.053584713 -0.24169189 0.14607446 -0.090745494
000090 95 a5 0a 3e 02 02 79 3e 78 2d eb bb d4 36 90 bd
       0.13539727 0.24317172 -0.007177051 -0.07041708
0000a0 30 e6 85 be 4b 5a b2 be ba 0f a6 3e 45 ca a9 be
       -0.26152182 -0.34834513 0.32433873 -0.33162132
0000b0 a7 32 df bd 9d 6c 1b 3b bd ef 65 be d6 39 c0 3e
       -0.10898333 0.0023715862 -0.22454734 0.37544125
0000c0 ac ce 9b 3e bd 69 5a be ba 8b 3c 3e 7e 98 31 bd
       0.30431116 -0.21329398 0.18412676 -0.04335832
0000d0 22 c8 a8 3c d9 7c 22 be 4b 50 ec bd 0e 54 01 be
       0.020603243 -0.15867938 -0.11538752 -0.1262972
0000e0 3a 6a 17 3d ee ca d0 bd 44 20 6c 3e 5c 14 01 be
       0.03696654 -0.10194956 0.23059183 -0.12605423
0000f0 a3 18 8c be f3 da a4 be c0 2e 4a be ca 6f 41 bd
       -0.27362546 -0.32198295 -0.19744396 -0.04722575

encoder.encode_blocks.0.t_feature.pos_ffn.w_1.bias f4 [8]
000000 cf 1c 59 be e0 35 56 3e 31 cb ec 3d 2a 9b 0f be
       -0.21202396 0.20918989 0.11562193 -0.14024034
000010 b8 1b 9e be 93 7c 24 3d f3 fc e2 bd e1 81 fa bd
       -0.30880523 0.040157866 -0.110834025 -0.12231804

encoder.encode_blocks.0.t_feature.pos_ffn.w_2.weight f4 [8, 8]
000000 65 52 ce 3a 72 b1 06 3e bc d1 45 be 0a 4f d9 bd
       0.0015741108 0.13153628 -0.19318289 -0.10610779
000010 50 9e 8e be de 3e b3 3e 20 be da b9 77 a6 a1 be
       -0.27855158 0.350089 -0.00041721854 -0.31572315
000020 5b 99 95 be db 81 e3 3d a8 11 2d 3e 13 de 57 3e
       -0.29218563 0.11108752 0.16901267 0.21080808
000030 d2 87 3a 3e 5d d3 5e be 16 17 b7 bc b7 ab e6 bd
       0.18215874 -0.21760316 -0.022349875 -0.11263221
000040 93 40 88 3e 7b ad 11 be 58 6b 48 3e 15 8e 9e 3e
       0.26611766 -0.14226334 0.19572198 0.30967775
000050 4c f6 9d 3e dd 7b 3e be 21 28 f5 3d 7c b4 98 3e
       0.30851972 -0.18601938 0.119705446 0.298252
000060 4a 8d 97 3e 7a 99 d6 bd 6b 18 47 be c6 3f 90 3e
       0.29599983 -0.10478492 -0.19442908 0.28173655
000070 43 14 82 3e 82 39 90 be 35 c7 99 bd cb 8b 64 be
       0.25406083 -0.28168875 -0.07508699 -0.22318952
000080 8d 6c 6b bb 8c 5c f8 3d 9e 48 90 be a4 d8 94 39
       -0.0035922856 0.12127027 -0.28180403 0.0002839017
000090 4e 9f a2 be f0 0e aa 3d 87 2e 76 3d 81 84 88 3e
       -0.31762165 0.0830363 0.060102966 0.26663592
0000a0 9d 75 4b 3e 0a 31 c3 bc 55 72 9a bc ec c5 3c be
       0.19869085 -0.023827095 -0.018853346 -0.18434876
0000b0 61 bd 68 3e ac e2 85 3e 78 3e 4e be bd bb ab be
       0.22728492 0.261495 -0.20141017 -0.3354167
0000c0 42 0f 74 bc d1 ef 34 3d f0 5b 3b be cd d4 34 be
       -0.014896216 0.04417402 -0.1829679 -0.17659302
0000d0 86 10 99 3e b8 90 ff bc 6a a4 d9 bc c8 a8 21 3e
       0.2989542 -0.031196937 -0.026567657 0.15787041
0000e0 c5 de 88 3e 70 9c 50 be ef 76 74 3e 79 f3 31 be
       0.2673246 -0.20372176 0.23873495 -0.17378034
0000f0 34 b0 a0 be 0b a5 72 3e b4 93 45 3e 38 2f 39 be
       -0.31384432 0.23695771 0.19294626 -0.18084419

encoder.encode_blocks.0.t_feature.pos_ffn.w_2.bias f4 [8]
000000 fc f8 ae 3e 97 1a 2f 3e f8 39 9d 3e 55 32 20 be
       0.34174335 0.17099987 0.3070829 -0.156442
000010 41 9d 0a bd 31 8c cd 3d 58 7f a4 be b4 a6 0b 3e
       -0.033841375 0.10036505 -0.32128406 0.13637811

encoder.encode_blocks.0.t_feature.pos_ffn.layer_norm.weight f4 [8]
000000 91 82 82 3f 11 f1 79 3f 93 34 83 3f df 0b 81 3f
       1.0196096 0.97633463 1.0250419 1.0081748
000010 90 e9 7b 3f 3a f6 82 3f 48 e6 7b 3f ec 34 81 3f
       0.98403263 1.0231392 0.98398256 1.0094275

encoder.encode_blocks.0.t_feature.pos_ffn.layer_norm.bias f4 [8]
000000 ca c3 46 3c 86 82 b5 3c 8e ff 9c bc bc 04 fc ba
       0.012131641 0.022156965 -0.019164827 -0.0019227485
000010 c9 5e 29 3c fa d7 d2 3c 62 d5 81 bb 49 d5 96 3c
       0.01033754 0.025737751 -0.003962205 0.01841225

encoder.encode_blocks.0.s_feature.gnn1_embed.convs.0.bias f4 [8]
000000 9b 91 69 3b 51 9e b1 bc 15 c5 0a 3c 77 29 bd 3b
       0.0035639766 -0.021681936 0.00846984 0.0057727653
000010 72 d5 eb bc de 6c 1c 3c 00 00 00 00 fd 7a ff 3b
       -0.028788302 0.00954744 0.0 0.007796644

encoder.encode_blocks.0.s_feature.gnn1_embed.convs.0.lin.weight f4 [8, 8]
000000 d2 33 0b bf 69 64 07 bf b6 f0 74 3e d7 68 dd 3e
       -0.54375947 -0.5288759 0.23919949 0.4324405
000010 19 a5 53 3e 0f 43 e9 3d 6b c1 d0 bd de 75 05 bd
       0.20668449 0.113897435 -0.101931415 -0.03258311
000020 54 bb 3c 3e dc 0e ac 3e a1 43 68 bc 65 7f ef bd
       0.18430835 0.33605087 -0.01417628 -0.116942205
000030 41 28 0a 3f 48 d4 96 3e 2a 39 01 3d 8f 08 0a be
       0.5396767 0.29458833 0.031548657 -0.13479827
000040 a8 ec 53 be 8a c1 b9 3e 67 73 2d ba 22 b2 14 3f
       -0.20695746 0.3628047 -0.00066166226 0.5808431
000050 c9 40 8c 3d 1b 56 0d bd 6d fb 05 3f cf ba 2e be
       0.06848294 -0.034505945 0.5233677 -0.1706345
000060 f8 8c e4 be f2 09 c1 be 4c 97 01 bf 7b 21 00 bf
       -0.446388 -0.377029 -0.50621486 -0.5005109
000070 31 4a 93 3e e4 de 04 3f b7 fd af 2e d1 23 b4 bd
       0.2876754 0.51902604 8.0031475e-11 -0.08795894
000080 e9 a0 0f 3f f5 04 e1 3e 71 bd c0 be 33 80 97 3d
       0.56104904 0.43949094 -0.37644532 0.07397499
000090 5a 9a e7 bd c8 86 a6 3e 92 93 06 3e b6 6d 2d be
       -0.11308737 0.32524705 0.13142231 -0.16936383
0000a0 44 ee c6 bd 3e 99 16 bf 37 6f d4 3e 05 80 9e 3d
       -0.09713414 -0.5882758 0.414911 0.077392615
0000b0 2c 94 37 be f5 7a 1c 3e 03 90 7e 3e 8b ab 25 bd
       -0.17927617 0.1528128 0.24859624 -0.0404468
0000c0 11 02 d9 3c 7a 91 6b bd 67 dc 30 3e e5 cf d2 bc
       0.026490243 -0.057511784 0.17271577 -0.025733897
0000d0 bd b6 93 be 18 b7 97 bd 8b 5c 3d bc 57 85 5d 32
       -0.28850356 -0.07407969 -0.0115577085 1.2894211e-08
0000e0 6f 8a 0f 3f 6b 44 29 bb 43 35 21 ba 59 94 05 3f
       0.5607061 -0.0025828134 -0.0006149599 0.52179486
0000f0 35 af 62 be 2e cc 29 bd b2 a8 f4 3e 32 e3 6b bd
       -0.22137149 -0.041454487 0.47784954 -0.057589717

encoder.encode_blocks.0.s_feature.gnn1_embed.convs.1.bias f4 [8]
000000 85 1c 58 bb a9 c5 13 3c 00 16 a6 3c cc aa 50 3b
       -0.0032975983 0.009019294 0.020274162 0.0031840084
000010 2c ee 91 ba 63 31 6a bc 70 c0 1f 3c 75 e6 63 3c
       -0.0011133603 -0.014294001 0.0097504705 0.013909926

encoder.encode_blocks.0.s_feature.gnn1_embed.convs.1.lin.weight f4 [8, 8]
000000 9b 4d 98 3e d9 12 93 3e fd fe bf 3e d0 c4 1b 3f
       0.29746708 0.28725317 0.37499228 0.6084719
000010 be a5 3a be 76 58 71 be 64 fb 0a 3f a5 06 e8 bc
       -0.18227288 -0.23568901 0.5428984 -0.02832348
000020 f7 ec 12 bf aa 44 c8 3e da 7c d7 3e 15 5b 36 be
       -0.5739283 0.39114887 0.42087442 -0.17808183
000030 a7 8c 46 bd 3d 5f 1a 3e 39 1c fb bd 73 ff 48 3e
       -0.04847398 0.15075393 -0.122612424 0.19628696
000040 d2 82 db be 8e 46 7c 3e bb d5 62 3e 98 28 a3 be
       -0.42873245 0.2463629 0.22151844 -0.31866908
000050 f8 7b e8 be 01 3e 19 be b6 01 49 3e 91 e8 94 bd
       -0.4540708 -0.14965059 0.19629559 -0.07270921
000060 af 9a 2c 3e 4e d4 12 bf 73 15 c3 be f5 44 6a bc
       0.16855882 -0.573552 -0.38102302 -0.014298667
000070 e8 97 f0 3e 0c a4 b3 be 8d ac d8 be 7a 37 04 bf
       0.46990895 -0.35086095 -0.42319146 -0.5164715
000080 46 6c b3 be 07 d3 e2 be b0 de 39 3e 8d 7f 50 3e
       -0.35043544 -0.44301626 0.18151355 0.20361157
000090 26 0f 8d 3e ec 1f f3 3c fe fd 9f 3e 69 61 fe 3e
       0.2755062 0.029678307 0.31248468 0.49683693
0000a0 7e 79 21 be fc b5 db bd 62 12 1f be f5 77 b2 3e
       -0.15769002 -0.1072807 -0.15534356 0.34857145
0000b0 87 c1 84 3e 3b 50 9c 3d cf c1 0b 3f d7 2b b2 be
       0.259289 0.0763249 0.54592603 -0.34799072
0000c0 72 12 68 be 06 5c 06 be 82 95 47 3e 94 cf 8b be
       -0.22663286 -0.13121042 0.19490626 -0.27306807
0000d0 90 1f 10 3f 2c 27 04 bf 1d 85 ea b9 40 63 0a 3e
       0.5629816 -0.5162227 -0.00044731135 0.13514423
0000e0 e8 6c 67 be 3d 6c 81 3d 79 15 68 3d 13 5d 8d 3c
       -0.22600138 0.06319473 0.056661103 0.017256295
0000f0 4b 2d 0b bf 69 5a 19 bf ef 06 00 3f 10 63 1f be
       -0.54365987 -0.5990358 0.5001058 -0.15565133

encoder.encode_blocks.0.s_feature.gnn1_embed.convs.2.bias f4 [8]
000000 60 e0 26 3b 4b 18 72 3b db 90 c6 bb 2f a1 46 bc
       0.0025463328 0.003694075 -0.0060597486 -0.01212339
000010 c7 31 9f 3b 5f 94 a4 b8 d5 fc e5 3b fb 65 da bc
       0.004858229 -7.847766e-05 0.0070186653 -0.026659956

encoder.encode_blocks.0.s_feature.gnn1_embed.convs.2.lin.weight f4 [8, 8]
000000 43 62 0c 3f e9 d7 aa 3e 38 bd f4 be 0e 0c d5 3e
       0.54837435 0.3336785 -0.47800612 0.4161076
000010 94 ab 83 3e d8 e1 aa be 5a ae 15 bf 26 c2 ae be
       0.2571684 -0.3337543 -0.58469164 -0.34132499
000020 bd f5 12 3c 8d cf 57 bd 60 e8 06 3f ad f1 54 bc
       0.008969721 -0.05268817 0.52698326 -0.012997073
000030 79 4a fa 3e 32 ca ac be d6 ad d4 3e e9 7b b9 3e
       0.48884943 -0.33748013 0.41538876 0.36227348
000040 3b 55 a4 3e 74 52 fe be ce 90 63 be 71 b2 aa 3e
       0.32096276 -0.49672282 -0.22223207 0.33339265
000050 3e 57 1b 3f ef d1 e3 be 1e 67 0f 3f 42 9a d7 3d
       0.60679996 -0.44496104 0.5601672 0.10527469
000060 e7 af d8 be d7 9d 7b be 89 2c 0d be 08 29 a9 be
       -0.42321703 -0.2457193 -0.1378652 -0.33039117
000070 aa 4b 89 3c 66 7f b9 bd 54 92 36 3e 03 81 f2 bd
       0.016759712 -0.090575024 0.17829257 -0.11841013
000080 25 04 5c 3e 7a 1f 8b be cf 80 e2 be ac 26 c2 3e
       0.21485956 -0.27172452 -0.44238898 0.3792013
000090 f9 fd dc 3e a4 be e1 3e 6e 54 fb bd ab d2 d7 be
       0.43162516 0.4409076 -0.12271963 -0.42152914
0000a0 ad c1 d2 3e 0f 96 e0 bd f4 5b c9 bd d1 c8 1c be
       0.41163388 -0.109661214 -0.09831992 -0.1531098
0000b0 52 39 06 3d 19 26 e5 3e 0f 43 8c 3e 2e 61 13 bf
       0.03276951 0.4475563 0.27394912 -0.5757016
0000c0 7f 1b f6 be ed 14 73 be 1a 49 05 bf c0 17 24 bf
       -0.48067853 -0.23738451 -0.5206467 -0.6409874
0000d0 77 ff b7 bd 1c b1 f4 be 40 c7 2d 3e ac 88 a6 bc
       -0.08984273 -0.47791374 0.16970539 -0.020328842
0000e0 8c 56 c1 bd fa 5c 05 bf bd 12 a2 be fb ba dd bc
       -0.09440336 -0.52094996 -0.3165492 -0.027066698
0000f0 70 31 9b be 21 22 c8 be 30 3b e8 3e 8d 5f 51 3d
       -0.30311155 -0.39088538 0.45357656 0.051116515

encoder.encode_blocks.0.s_feature.gnn1_embed.bns.0.weight f4 [8]
000000 24 fe 82 3f c1 10 82 3f ea e3 7e 3f c3 b0 7b 3f
       1.0233808 1.0161363 0.9956652 0.9831659
000010 89 86 7c 3f 91 24 81 3f fb a3 28 3f 40 ac 7e 3f
       0.98642784 1.0089284 0.65875214 0.9948158

encoder.encode_blocks.0.s_feature.gnn1_embed.bns.0.bias f4 [8]
000000 a0 4a 1d bb cb fb 10 3b 4a 83 f8 3b 15 c6 82 bc
       -0.0024000779 0.0022122737 0.0075840103 -0.015963593
000010 10 89 49 bb 11 f2 6e bc 08 4c 5d bc 68 13 46 bc
       -0.0030751862 -0.01458408 -0.013506897 -0.012089588

encoder.encode_blocks.0.s_feature.gnn1_embed.bns.0.running_mean f4 [8]
000000 58 44 4c 3e 2e 57 f8 3e c2 20 8f 1c 74 07 66 3f
       0.19947946 0.48504013 9.471414e-22 0.8985512
000010 fc d9 07 3f 29 78 8b 3e 00 00 00 00 77 75 c5 1c
       0.5306699 0.27240112 0.0 1.306673e-21

encoder.encode_blocks.0.s_feature.gnn1_embed.bns.0.running_var f4 [8]
000000 5c 8f 5a 3a 52 c2 b6 3b 23 61 f6 1e 92 d4 8d 3c
       0.0008337402 0.005577364 2.6086438e-20 0.017313275
000010 2a c8 de 3b f9 b5 c4 3a 58 06 f6 1e ac 59 f6 1e
       0.0067987638 0.0015007845 2.6048887e-20 2.608335e-20

encoder.encode_blocks.0.s_feature.gnn1_embed.bns.1.weight f4 [8]
000000 5b a6 7d 3f 0e 79 7f 3f 15 fb 80 3f 6a 3c 82 3f
       0.99081963 0.9979409 1.0076624 1.0174687
000010 b7 02 7d 3f 42 f0 7c 3f 75 88 80 3f 07 ec 81 3f
       0.9883227 0.98804104 1.0041643 1.0150155

encoder.encode_blocks.0.s_feature.gnn1_embed.bns.1.bias f4 [8]
000000 70 c8 4b 3c 57 f0 9f 3c 64 60 76 3b 93 aa 44 3c
       0.012437925 0.019523783 0.0037594074 0.012003559
000010 29 d8 c6 3b 38 1b ae 3b 16 bc 89 bc 23 c4 dc 3b
       0.006068249 0.0053133033 -0.01681332 0.0067372485

encoder.encode_blocks.0.s_feature.gnn1_embed.bns.1.running_mean f4 [8]
000000 26 2f 34 3e 7a 2b c1 3d f4 e0 c3 3e 5b f0 e7 3d
       0.1759611 0.094321206 0.38257563 0.11325141
000010 1e f7 bd 3d b9 ab ac 3d e3 05 57 3e dc 0e e1 3e
       0.092756495 0.08431191 0.2099834 0.4395665

encoder.encode_blocks.0.s_feature.gnn1_embed.bns.1.running_var f4 [8]
000000 35 44 c0 3d 1c 1e 55 3c 6c 5d 67 3e 3e 63 9c 3c
       0.093880095 0.013007667 0.22594231 0.019090291
000010 3a be 7c 3c c4 9c c1 3c ef cd 89 3d 2b 43 9c 3e
       0.015426213 0.023634322 0.06728732 0.30519995

encoder.encode_blocks.0.s_feature.gnn1_embed.bns.2.weight f4 [8]
000000 74 96 80 3f f4 d7 7b 3f 0b 9c 83 3f 8c 9c 7e 3f
       1.0045915 0.98376393 1.0281996 0.9945762
000010 e4 52 80 3f d7 d4 75 3f 71 71 7d 3f f1 36 81 3f
       1.0025296 0.9602789 0.9900122 1.0094892

encoder.encode_blocks.0.s_feature.gnn1_embed.bns.2.bias f4 [8]
000000 7b 11 3d bc d3 e5 31 bc 16 b8 d3 3c f4 50 f1 3c
       -0.011539812 -0.010858017 0.025844615 0.029457547
000010 c8 47 a0 bc 69 d5 e2 3c ab 09 56 3d 0f 77 88 3c
       -0.019565478 0.027689653 0.052255314 0.016658334

encoder.encode_blocks.0.s_feature.gnn1_embed.bns.2.running_mean f4 [8]
000000 de 3b 50 3e 7c bb 44 3f e9 9d bd 3e 6a cb 26 3e
       0.20335338 0.7684858 0.37034538 0.16288534
000010 79 22 a6 3e e7 81 d9 3e 28 01 b9 3e d0 1b 20 3e
       0.32448176 0.4248192 0.36133695 0.1563561

encoder.encode_blocks.0.s_feature.gnn1_embed.bns.2.running_var f4 [8]
000000 92 44 9a 3d 77 0f ca 3f 56 2d cd 3e d9 c4 27 3d
       0.0753261 1.578597 0.4007365 0.040959213
000010 79 16 af 3e eb f5 14 3f 6a 1c 3e 3e aa ab 20 3d
       0.34196833 0.5818774 0.18565527 0.03922621

encoder.encode_blocks.0.s_feature.mlp2.lin1.weight f4 [8, 288]
000000 49 5e e1 3c 4e 7b 52 3d ca 69 44 bd d7 6d a6 bc
       0.027510779 0.051387124 -0.04795245 -0.020316048
000010 93 5c 0e 3d 6e 4d 3e 3d 4e d2 b0 bc e6 46 23 3d
       0.034756254 0.04646056 -0.021584656 0.039862536
000020 aa 7a 84 bb d6 b7 35 bc f2 8b 7b 3c af 4e 3d bd
       -0.004042943 -0.011091193 0.01535319 -0.046217617
000030 8a 3a b1 3c ca b9 f1 bc 56 cf 83 3d 57 fa a3 3b
       0.021634359 -0.029507536 0.064360306 0.005004208
000040 a9 6b 26 3d 65 49 f6 3b 72 fb f2 ba 44 ca c2 3c
       0.040630016 0.0075160735 -0.0018538071 0.023778088
000050 e2 df f6 3c ee 50 7b bd 49 38 62 bb 82 12 82 bc
       0.030136053 -0.061356477 -0.0034518412 -0.015877966
000060 92 06 51 3a e9 47 4b 3d b1 13 2a bd e2 c2 fc bc
       0.00079736963 0.049629126 -0.041522685 -0.030854646
000070 ab d8 72 bd 9c cb 34 bc 09 84 a3 3c 20 7b 99 bc
       -0.059288662 -0.011034872 0.01996042 -0.018735468
000080 af 83 5c bc c4 15 4f bd ad e8 c0 3b 40 94 17 bd
       -0.01345913 -0.050557867 0.005887112 -0.037006617
000090 41 3d 0a 3d 40 89 07 3d 96 05 19 bd 09 c8 09 3c
       0.033749823 0.033089876 -0.037358843 0.0084095085
0000a0 a9 72 c3 3b b9 b0 61 3d 3d 6d 6a bd 08 6c be bc
       0.0059645963 0.055100176 -0.057233084 -0.023244873
0000b0 0e 41 32 3d 40 30 a1 bc d1 dd c4 bb 36 93 5d bd
       0.043519072 -0.019676328 -0.006007888 -0.05409547
0000c0 25 c0 bc 3c 37 a6 15 3a 1f 2c 03 bd 5b 53 33 bc
       0.02304084 0.0005708667 -0.0320245 -0.010945166
0000d0 62 b6 09 3d c0 a4 37 bd 58 2f 2f bd fb e9 a6 3c
       0.0336212 -0.044834852 -0.04276976 0.020375242
0000e0 7f 67 ce bc 7c 91 25 3c bb 05 35 bc 75 38 3c 3d
       -0.025195835 0.010105487 -0.0110487295 0.04595228
0000f0 de 68 28 bd 96 2f 0c 3d 8e 06 08 3d b6 8e 27 3b
       -0.041115634 0.03422507 0.033209376 0.002556724
000100 07 cd 99 3c 22 eb 35 bd ec 5a 56 3d 4f b0 75 bc
       0.018774522 -0.044413693 0.052332804 -0.0149956485
000110 bf f2 51 3c 44 f0 1b 3d 5e 78 80 bb 3a b9 f2 3b
       0.012814223 0.038070932 -0.003920599 0.0074073346
000120 2e 64 2d bd d7 af 5a 3c 18 5d 31 3d 20 67 10 bc
       -0.042331867 0.013347588 0.04330167 -0.008813649
000130 c6 03 52 bd cc 8c 3c 3d 69 29 3a 3d d6 2c d9 bc
       -0.05127313 0.046032712 0.045449648 -0.026510637
000140 c9 98 08 bd 8d f0 26 3d 7e ad 15 3c e8 5f 48 bd
       -0.033348832 0.04075675 0.009135602 -0.04891959
000150 f4 ad 28 3c b3 db 4c bd 43 b2 d2 3c 90 cf fe bc
       0.01029538 -0.05001421 0.025719767 -0.031104833
000160 c1 c7 75 3c 46 e7 6f bd 61 c3 39 bd 9a 87 b6 38
       0.015001238 -0.05857017 -0.045352343 8.703694e-05
000170 01 1e 77 bc 65 6b 48 bd 08 6e 29 bd 8d 60 86 bc
       -0.015082837 -0.048930544 -0.0413647 -0.01640346
000180 49 1c ea 3c be 50 c1 3c ac 66 20 bc b3 09 6d 3d
       0.02857794 0.023598071 -0.009790104 0.057870578
000190 b9 b0 61 3c ce f4 27 3d 99 05 e5 3c a7 bb 33 3d
       0.013775044 0.04100495 0.02795677 0.04388013
0001a0 d4 93 81 3c 03 09 15 3d 67 ca 09 bd e2 15 41 3d
       0.01581756 0.036385547 -0.03364029 0.04714001
0001b0 75 ac 16 3d 82 d9 39 bd 94 1d 03 bd ac f3 33 3d
       0.03678556 -0.045373447 -0.03201063 0.043933555
0001c0 4b ba 3b 3d 37 c8 27 bd 19 30 fb 3c b3 d2 25 bd
       0.04583196 -0.040962424 0.030662583 -0.04048414
0001d0 64 a5 e4 bc 3e 06 68 bd f9 f8 f8 bc 65 5c 78 bc
       -0.027910896 -0.056646578 -0.030392157 -0.015158747
0001e0 94 e3 1e 3d 6e 4c f1 bb 55 6d 25 bd dd 01 0e 3d
       0.038791254 -0.0073638475 -0.04038747 0.034669746
0001f0 a2 a8 6c bb 2f 02 f9 3c 9a c0 75 3d 02 e5 70 bd
       -0.0036111255 0.030396549 0.059998132 -0.05881215
000200 4e 2a ac 3b 6f 47 f2 ba b2 88 2a bd eb ff 29 3d
       0.0052540665 -0.0018484424 -0.04163427 0.041503828
000210 16 80 ed 3b fe 1b 00 bd 34 99 d7 ba 67 6c 4b bd
       0.007247935 -0.031276695 -0.0016448856 -0.049663927
000220 21 24 82 bd 0f 14 d6 bb 04 f3 8a bc 20 63 1b bc
       -0.06354547 -0.006533153 -0.016961582 -0.009484082
000230 11 37 80 3d e0 b8 52 bc 5d 7d f4 3c 1f fa 1d 3c
       0.06260503 -0.01286146 0.029844934 0.009642153
000240 28 f5 8e bc 5a 51 25 3d be e2 52 3d 05 39 39 bd
       -0.017450884 0.040360786 0.05148577 -0.045220394
000250 51 d9 11 bd fa b6 55 bd 07 53 58 bd 30 48 1d bd
       -0.03560764 -0.052176453 -0.052813556 -0.03839892
000260 3c 39 98 3c 2a d4 38 bd b4 ab 57 3d 67 8c a5 3c
       0.018581979 -0.04512421 0.052653983 0.02020855
000270 fa 62 0c bd b1 68 57 3d 7e 99 55 3c 45 66 57 ba
       -0.03427408 0.052590076 0.013037084 -0.00082168385
000280 72 1e 12 3d 70 6c 64 bd 68 04 cd 3a 8c 83 2a bd
       0.035673566 -0.055767477 0.0015641572 -0.04162936
000290 8e 72 ee bc c7 42 5a 3c 17 a9 4f bc 24 fe 3c bd
       -0.029107358 0.013321585 -0.0126745915 -0.046140805
0002a0 62 dd b5 bc bf 74 c7 3c 33 c7 2e 3d 94 02 35 bb
       -0.02220029 0.024347661 0.04267044 -0.0027619945
0002b0 b9 f9 54 3c 17 91 17 bd 2a fc d2 3b 45 cf 4d bd
       0.012998992 -0.037003603 0.0064387517 -0.050246496
0002c0 6d 45 68 ba 4d 46 31 bc 4e ae a8 bb 85 03 4b 3d
       -0.0008860443 -0.010819984 -0.005147732 0.049563903
0002d0 d4 fd 01 3c 9f a9 e3 bc f7 84 c9 bc 6d af 1c bc
       0.0079340525 -0.027790843 -0.024599535 -0.009563309
0002e0 ce 51 78 bd 63 39 f3 bc 86 78 33 3d 62 14 85 3c
       -0.06062489 -0.02969045 0.043816112 0.01624507
0002f0 ba 2b 1d bd 70 ab 50 bd 66 76 1c bd 68 e5 83 bc
       -0.03837178 -0.050944746 -0.03819885 -0.0161006
000300 d6 13 bb bb f3 c0 4c bd 27 d4 28 3d b0 2e 23 3d
       -0.0057091517 -0.0499887 0.04121795 0.039839447
000310 66 a0 82 bc 31 f5 2b 3d d0 d6 41 bc 1b 83 b3 3b
       -0.015945625 0.04198188 -0.011831 0.0054782755
000320 e8 87 24 bd 5d dd 9a bc 7d 5c 1d bc d2 e3 03 bd
       -0.040168673 -0.018904382 -0.00960457 -0.03219969
000330 d4 16 26 bb e8 7d 0b bd 19 f9 71 3d 75 e4 df bc
       -0.0025343196 -0.03405562 0.05907545 -0.027330616
000340 7e 01 04 bd 1b 19 12 bd 1c dc 87 3d eb fd 28 bd
       -0.032227986 -0.035668474 0.066337794 -0.04125778
000350 d9 61 cf bc 45 b7 77 bd c8 13 f2 3c 59 12 4f 3d
       -0.025315212 -0.060477514 0.029550448 0.050554607
000360 f8 22 3f bd a2 95 ae 3a 40 0d be bc e8 75 f8 3c
       -0.04666421 0.001331974 -0.023199677 0.03032966
000370 cf 27 3d bd 69 86 35 3d 11 de 75 3d d7 97 5f bd
       -0.046180543 0.044317637 0.060026232 -0.054588165
000380 24 39 d5 3c 71 c7 e9 bc 51 2e 39 bd 2c 02 8d 3b
       0.026028223 -0.028537484 -0.045210186 0.0043032374
000390 09 30 c4 3c b7 0b 44 3d 50 0e 8f bc 12 78 c3 bc
       0.023948686 0.047862735 -0.01746288 -0.023860965
0003a0 6e bf 3e bd 48 0a 46 ba 84 f4 08 3d 9e d7 25 bd
       -0.04656928 -0.00075546326 0.033436313 -0.04048883
0003b0 6c 8c 78 3d 6a cd 91 bb a5 e7 0e bd 38 7a bf bc
       0.06068079 -0.004449536 -0.034888882 -0.023373708
0003c0 f5 c7 0f bd ee 15 16 bd 79 88 bc bb e3 f4 4d 3c
       -0.035102803 -0.036642008 -0.0057535735 0.012570593
0003d0 f4 5a 24 bd 58 93 07 bd f0 43 73 bc e6 38 bf 3c
       -0.040125802 -0.033099502 -0.0148477405 0.023342561
0003e0 a7 85 05 bd 40 4a 30 bd d5 3e 66 3d de f9 3d 3b
       -0.032598164 -0.04303956 0.056212265 0.0028988044
0003f0 18 e5 c6 3c 5f 92 e6 bc c3 16 fd 3c a8 dc 49 bd
       0.024279162 -0.028145967 0.030894643 -0.0492827

encoder.encode_blocks.0.s_feature.mlp2.lin1.bias f4 [8]
000000 de 2d 0c 3c 94 9d ef bc fd 45 a8 3c 5d 4d 13 3d
       0.008555857 -0.029249944 0.020541186 0.03596245
000010 f3 4f b8 bc e7 f3 b6 bc 95 15 00 bd be db 32 3d
       -0.02249906 -0.022333099 -0.031270582 0.043666594

encoder.encode_blocks.0.s_feature.mlp2.mlp1.0.weight f4 [8, 288]
000000 49 5e e1 3c 4e 7b 52 3d ca 69 44 bd d7 6d a6 bc
       0.027510779 0.051387124 -0.04795245 -0.020316048
000010 93 5c 0e 3d 6e 4d 3e 3d 4e d2 b0 bc e6 46 23 3d
       0.034756254 0.04646056 -0.021584656 0.039862536
000020 aa 7a 84 bb d6 b7 35 bc f2 8b 7b 3c af 4e 3d bd
       -0.004042943 -0.011091193 0.01535319 -0.046217617
000030 8a 3a b1 3c ca b9 f1 bc 56 cf 83 3d 57 fa a3 3b
       0.021634359 -0.029507536 0.064360306 0.005004208
000040 a9 6b 26 3d 65 49 f6 3b 72 fb f2 ba 44 ca c2 3c
       0.040630016 0.0075160735 -0.0018538071 0.023778088
000050 e2 df f6 3c ee 50 7b bd 49 38 62 bb 82 12 82 bc
       0.030136053 -0.061356477 -0.0034518412 -0.015877966
000060 92 06 51 3a e9 47 4b 3d b1 13 2a bd e2 c2 fc bc
       0.00079736963 0.049629126 -0.041522685 -0.030854646
000070 ab d8 72 bd 9c cb 34 bc 09 84 a3 3c 20 7b 99 bc
       -0.059288662 -0.011034872 0.01996042 -0.018735468
000080 af 83 5c bc c4 15 4f bd ad e8 c0 3b 40 94 17 bd
       -0.01345913 -0.050557867 0.005887112 -0.037006617
000090 41 3d 0a 3d 40 89 07 3d 96 05 19 bd 09 c8 09 3c
       0.033749823 0.033089876 -0.037358843 0.0084095085
0000a0 a9 72 c3 3b b9 b0 61 3d 3d 6d 6a bd 08 6c be bc
       0.0059645963 0.055100176 -0.057233084 -0.023244873
0000b0 0e 41 32 3d 40 30 a1 bc d1 dd c4 bb 36 93 5d bd
       0.043519072 -0.019676328 -0.006007888 -0.05409547
0000c0 25 c0 bc 3c 37 a6 15 3a 1f 2c 03 bd 5b 53 33 bc
       0.02304084 0.0005708667 -0.0320245 -0.010945166
0000d0 62 b6 09 3d c0 a4 37 bd 58 2f 2f bd fb e9 a6 3c
       0.0336212 -0.044834852 -0.04276976 0.020375242
0000e0 7f 67 ce bc 7c 91 25 3c bb 05 35 bc 75 38 3c 3d
       -0.025195835 0.010105487 -0.0110487295 0.04595228
0000f0 de 68 28 bd 96 2f 0c 3d 8e 06 08 3d b6 8e 27 3b
       -0.041115634 0.03422507 0.033209376 0.002556724
000100 07 cd 99 3c 22 eb 35 bd ec 5a 56 3d 4f b0 75 bc
       0.018774522 -0.044413693 0.052332804 -0.0149956485
000110 bf f2 51 3c 44 f0 1b 3d 5e 78 80 bb 3a b9 f2 3b
       0.012814223 0.038070932 -0.003920599 0.0074073346
000120 2e 64 2d bd d7 af 5a 3c 18 5d 31 3d 20 67 10 bc
       -0.042331867 0.013347588 0.04330167 -0.008813649
000130 c6 03 52 bd cc 8c 3c 3d 69 29 3a 3d d6 2c d9 bc
       -0.05127313 0.046032712 0.045449648 -0.026510637
000140 c9 98 08 bd 8d f0 26 3d 7e ad 15 3c e8 5f 48 bd
       -0.033348832 0.04075675 0.009135602 -0.04891959
000150 f4 ad 28 3c b3 db 4c bd 43 b2 d2 3c 90 cf fe bc
       0.01029538 -0.05001421 0.025719767 -0.031104833
000160 c1 c7 75 3c 46 e7 6f bd 61 c3 39 bd 9a 87 b6 38
       0.015001238 -0.05857017 -0.045352343 8.703694e-05
000170 01 1e 77 bc 65 6b 48 bd 08 6e 29 bd 8d 60 86 bc
       -0.015082837 -0.048930544 -0.0413647 -0.01640346
000180 49 1c ea 3c be 50 c1 3c ac 66 20 bc b3 09 6d 3d
       0.02857794 0.023598071 -0.009790104 0.057870578
000190 b9 b0 61 3c ce f4 27 3d 99 05 e5 3c a7 bb 33 3d
       0.013775044 0.04100495 0.02795677 0.04388013
0001a0 d4 93 81 3c 03 09 15 3d 67 ca 09 bd e2 15 41 3d
       0.01581756 0.036385547 -0.03364029 0.04714001
0001b0 75 ac 16 3d 82 d9 39 bd 94 1d 03 bd ac f3 33 3d
       0.03678556 -0.045373447 -0.03201063 0.043933555
0001c0 4b ba 3b 3d 37 c8 27 bd 19 30 fb 3c b3 d2 25 bd
       0.04583196 -0.040962424 0.030662583 -0.04048414
0001d0 64 a5 e4 bc 3e 06 68 bd f9 f8 f8 bc 65 5c 78 bc
       -0.027910896 -0.056646578 -0.030392157 -0.015158747
0001e0 94 e3 1e 3d 6e 4c f1 bb 55 6d 25 bd dd 01 0e 3d
       0.038791254 -0.0073638475 -0.04038747 0.034669746
0001f0 a2 a8 6c bb 2f 02 f9 3c 9a c0 75 3d 02 e5 70 bd
       -0.0036111255 0.030396549 0.059998132 -0.05881215
000200 4e 2a ac 3b 6f 47 f2 ba b2 88 2a bd eb ff 29 3d
       0.0052540665 -0.0018484424 -0.04163427 0.041503828
000210 16 80 ed 3b fe 1b 00 bd 34 99 d7 ba 67 6c 4b bd
       0.007247935 -0.031276695 -0.0016448856 -0.049663927
000220 21 24 82 bd 0f 14 d6 bb 04 f3 8a bc 20 63 1b bc
       -0.06354547 -0.006533153 -0.016961582 -0.009484082
000230 11 37 80 3d e0 b8 52 bc 5d 7d f4 3c 1f fa 1d 3c
       0.06260503 -0.01286146 0.029844934 0.009642153
000240 28 f5 8e bc 5a 51 25 3d be e2 52 3d 05 39 39 bd
       -0.017450884 0.040360786 0.05148577 -0.045220394
000250 51 d9 11 bd fa b6 55 bd 07 53 58 bd 30 48 1d bd
       -0.03560764 -0.052176453 -0.052813556 -0.03839892
000260 3c 39 98 3c 2a d4 38 bd b4 ab 57 3d 67 8c a5 3c
       0.018581979 -0.04512421 0.052653983 0.02020855
000270 fa 62 0c bd b1 68 57 3d 7e 99 55 3c 45 66 57 ba
       -0.03427408 0.052590076 0.013037084 -0.00082168385
000280 72 1e 12 3d 70 6c 64 bd 68 04 cd 3a 8c 83 2a bd
       0.035673566 -0.055767477 0.0015641572 -0.04162936
000290 8e 72 ee bc c7 42 5a 3c 17 a9 4f bc 24 fe 3c bd
       -0.029107358 0.013321585 -0.0126745915 -0.046140805
0002a0 62 dd b5 bc bf 74 c7 3c 33 c7 2e 3d 94 02 35 bb
       -0.02220029 0.024347661 0.04267044 -0.0027619945
0002b0 b9 f9 54 3c 17 91 17 bd 2a fc d2 3b 45 cf 4d bd
       0.012998992 -0.037003603 0.0064387517 -0.050246496
0002c0 6d 45 68 ba 4d 46 31 bc 4e ae a8 bb 85 03 4b 3d
       -0.0008860443 -0.010819984 -0.005147732 0.049563903
0002d0 d4 fd 01 3c 9f a9 e3 bc f7 84 c9 bc 6d af 1c bc
       0.0079340525 -0.027790843 -0.024599535 -0.009563309
0002e0 ce 51 78 bd 63 39 f3 bc 86 78 33 3d 62 14 85 3c
       -0.06062489 -0.02969045 0.043816112 0.01624507
0002f0 ba 2b 1d bd 70 ab 50 bd 66 76 1c bd 68 e5 83 bc
       -0.03837178 -0.050944746 -0.03819885 -0.0161006
000300 d6 13 bb bb f3 c0 4c bd 27 d4 28 3d b0 2e 23 3d
       -0.0057091517 -0.0499887 0.04121795 0.039839447
000310 66 a0 82 bc 31 f5 2b 3d d0 d6 41 bc 1b 83 b3 3b
       -0.015945625 0.04198188 -0.011831 0.0054782755
000320 e8 87 24 bd 5d dd 9a bc 7d 5c 1d bc d2 e3 03 bd
       -0.040168673 -0.018904382 -0.00960457 -0.03219969
000330 d4 16 26 bb e8 7d 0b bd 19 f9 71 3d 75 e4 df bc
       -0.0025343196 -0.03405562 0.05907545 -0.027330616
000340 7e 01 04 bd 1b 19 12 bd 1c dc 87 3d eb fd 28 bd
       -0.032227986 -0.035668474 0.066337794 -0.04125778
000350 d9 61 cf bc 45 b7 77 bd c8 13 f2 3c 59 12 4f 3d
       -0.025315212 -0.060477514 0.029550448 0.050554607
000360 f8 22 3f bd a2 95 ae 3a 40 0d be bc e8 75 f8 3c
       -0.04666421 0.001331974 -0.023199677 0.03032966
000370 cf 27 3d bd 69 86 35 3d 11 de 75 3d d7 97 5f bd
       -0.046180543 0.044317637 0.060026232 -0.054588165
000380 24 39 d5 3c 71 c7 e9 bc 51 2e 39 bd 2c 02 8d 3b
       0.026028223 -0.028537484 -0.045210186 0.0043032374
000390 09 30 c4 3c b7 0b 44 3d 50 0e 8f bc 12 78 c3 bc
       0.023948686 0.047862735 -0.01746288 -0.023860965
0003a0 6e bf 3e bd 48 0a 46 ba 84 f4 08 3d 9e d7 25 bd
       -0.04656928 -0.00075546326 0.033436313 -0.04048883
0003b0 6c 8c 78 3d 6a cd 91 bb a5 e7 0e bd 38 7a bf bc
       0.06068079 -0.004449536 -0.034888882 -0.023373708
0003c0 f5 c7 0f bd ee 15 16 bd 79 88 bc bb e3 f4 4d 3c
       -0.035102803 -0.036642008 -0.0057535735 0.012570593
0003d0 f4 5a 24 bd 58 93 07 bd f0 43 73 bc e6 38 bf 3c
       -0.040125802 -0.033099502 -0.0148477405 0.023342561
0003e0 a7 85 05 bd 40 4a 30 bd d5 3e 66 3d de f9 3d 3b
       -0.032598164 -0.04303956 0.056212265 0.0028988044
0003f0 18 e5 c6 3c 5f 92 e6 bc c3 16 fd 3c a8 dc 49 bd
       0.024279162 -0.028145967 0.030894643 -0.0492827

encoder.encode_blocks.0.s_feature.mlp2.mlp1.0.bias f4 [8]
000000 de 2d 0c 3c 94 9d ef bc fd 45 a8 3c 5d 4d 13 3d
       0.008555857 -0.029249944 0.020541186 0.03596245
000010 f3 4f b8 bc e7 f3 b6 bc 95 15 00 bd be db 32 3d
       -0.02249906 -0.022333099 -0.031270582 0.043666594

encoder.encode_blocks.0.s_construct.gnn1_pool.convs.0.bias f4 [8]
000000 a2 fb 7a 3b ae 76 0f 3d 6e bc 99 3b ea 58 2c bd
       0.0038296958 0.03502529 0.004691652 -0.042076983
000010 79 65 82 3b 21 04 75 bc 53 14 95 3c 10 d8 22 bc
       0.0039793816 -0.014954598 0.018198168 -0.009939209

encoder.encode_blocks.0.s_construct.gnn1_pool.convs.0.lin.weight f4 [8, 8]
000000 88 4e d4 3e d6 fc 04 bf 69 d8 69 bc 04 49 b2 be
       0.41466165 -0.519483 -0.014272788 -0.34821332
000010 ee 45 ad 3e 38 6f 12 3f 6a 49 56 3e 97 8a 1a be
       0.33842415 0.57200956 0.20926443 -0.1509193
000020 4c ca 9a 3d 25 ca 1a bd ce a3 1a 3e b6 37 7f be
       0.07558116 -0.037790436 0.15101549 -0.24923596
000030 c0 b6 8c 3e c3 c8 7c bd 3b 53 df 3e 03 32 a9 be
       0.27483177 -0.0617149 0.43618187 -0.33045968
000040 93 2d 81 be bb 04 86 bd c8 6b f8 3e 7d cb 48 be
       -0.25230083 -0.06543871 0.4851973 -0.19608875
000050 76 20 03 3f 32 e5 4d bd b7 f4 31 3e 99 3c 09 bf
       0.51221406 -0.050267406 0.17378508 -0.5360809
000060 e4 dd f3 3e 38 db 11 bd a4 56 e0 be aa 19 bc be
       0.47630227 -0.035609454 -0.43816102 -0.3673833
000070 ea b5 e0 3b 8b a9 ae be 3c cf 23 3e e9 15 fd be
       0.0068576233 -0.34113726 0.15997022 -0.4943078
000080 13 d9 7b 3e aa 25 1e 3f dc 3a a7 3e d6 c0 8b bd
       0.24594526 0.6177622 0.32662094 -0.0682389
000090 e0 bc 28 be c2 3b d1 3b 71 f0 12 be 29 b1 15 bf
       -0.164783 0.0063852975 -0.14349534 -0.5847345
0000a0 f6 48 13 be a2 5c d6 bd 87 2b 13 be 7d 7e f4 be
       -0.14383301 -0.10466887 -0.14372073 -0.47752753
0000b0 38 77 20 3f 4c 82 c4 be 6c 8b 1b be 7b 5e bc 3e
       0.62681913 -0.3838066 -0.15189904 0.36790833
0000c0 56 66 49 be 05 c0 c0 be 0f a9 01 3f f8 98 0c bf
       -0.19667944 -0.376465 0.5064859 -0.5492091
0000d0 0f 66 bc be e0 12 e1 3e ed 1a 2d 3e bf 90 a8 3b
       -0.36796615 0.43959713 0.16904803 0.005144208
0000e0 ff b2 24 3e 67 89 f8 3e 24 f7 c4 3e 02 3d af 3d
       0.16083907 0.4854233 0.38469803 0.08556558
0000f0 ec 5b 23 bc e6 80 8b bd 11 f2 d0 be 2f 00 37 3d
       -0.009970646 -0.06811695 -0.40809682 0.04467791

encoder.encode_blocks.0.s_construct.gnn1_pool.convs.1.bias f4 [8]
000000 47 0a 64 bb ff ed 38 3d 52 26 c4 3b bf 2b 66 3c
       -0.0034796165 0.045148846 0.0059860134 0.014048516
000010 06 6b e7 3b 09 c1 e3 3c 9f 84 b2 bc d4 63 00 3d
       0.0070623187 0.027802007 -0.021791754 0.031345204

encoder.encode_blocks.0.s_construct.gnn1_pool.convs.1.lin.weight f4 [8, 8]
000000 e0 28 d9 3d 34 53 17 bf c1 ed 81 be 50 af da 3e
       0.106034994 -0.5911133 -0.25376704 0.42711878
000010 0a f6 5b 3e 06 31 92 be 74 6e 0a bf 2f ef a5 be
       0.21480575 -0.28553027 -0.5407479 -0.32409045
000020 32 58 f6 3e 2e d0 ad be 76 60 19 bf 46 fe 75 3e
       0.48114163 -0.3394789 -0.5991281 0.24022779
000030 88 2c b0 3d 5a dd db be 16 c1 02 3e 75 2a 9e bd
       0.08602244 -0.42942315 0.12768969 -0.07722942
000040 75 d0 ac be 6e 1c f7 be 43 b3 1f bf 76 13 a2 be
       -0.3375279 -0.48263878 -0.62382907 -0.31655473
000050 f7 92 59 3e e9 eb 0d 3f b4 99 ae 3c 4d c0 3d be
       0.21247469 0.55438095 0.021313526 -0.18530388
000060 16 ae 9e be 65 b6 b8 3e cb 3d 40 3d e0 3a b5 be
       -0.30992192 0.36076656 0.04693393 -0.3539648
000070 d5 ac 1e 3e 13 a7 13 be 38 78 1d 3f 5a d7 0d bf
       0.15495618 -0.14419203 0.61511564 -0.55406725
000080 1e cc 92 3e 33 57 0d 3e d7 c6 f2 bd fd bc 10 bf
       0.28671354 0.13802795 -0.11854332 -0.56538373
000090 d5 14 04 3f 00 b8 1e be 9c 37 5c 3e 6d 4e af be
       0.5159429 -0.15499878 0.21505588 -0.34239522
0000a0 71 be 0c be 03 6d e7 3d 21 b2 f4 3c 40 d5 f6 be
       -0.13744523 0.11300089 0.029870095 -0.48209572
0000b0 a3 bd 1d be 3c f6 93 3d 52 a4 0f bd d3 54 e4 be
       -0.15404372 0.072247 -0.035068817 -0.44595966
0000c0 27 53 06 3f 36 b6 02 3e 73 2f f7 be 9b bd e6 be
       0.5247063 0.1276482 -0.48278388 -0.45066532
0000d0 4e ad 09 bf 29 41 0d 3f a5 a6 28 bc 64 36 95 3e
       -0.53780067 0.5517755 -0.010293637 0.2914306
0000e0 1d 04 03 3f 5d 5c 0e be 50 a1 ed 3d 1d f0 91 be
       0.5117815 -0.13902421 0.116030335 -0.28503504
0000f0 a1 87 9a bb 87 a6 11 bf d9 0b d3 3e 85 b2 af 3e
       -0.0047158753 -0.56894726 0.41219977 0.34315887

encoder.encode_blocks.0.s_construct.gnn1_pool.convs.2.bias f4 [51]
000000 fb 88 0c bd 68 b9 85 3b 35 91 e9 bb a6 3d 87 bc
       -0.034310322 0.00408094 -0.0071279057 -0.016508888
000010 bf b1 06 3d 80 91 e6 3c 9f 5f c8 3c 26 5b cc 3c
       0.032884356 0.028145552 0.024459658 0.024945807
000020 98 5b 4d 3d c6 1d fd bb 87 49 09 3d d1 eb fb 3c
       0.05013618 -0.0077244965 0.033517387 0.030752094
000030 b8 a4 4e bc c9 27 74 3d c9 25 ed 3c 39 e8 db 39
       -0.012612514 0.059608255 0.028948681 0.00041943954
000040 3e 5a 17 bb d9 19 46 bd 31 c4 06 3c 19 f2 1b 3d
       -0.002309456 -0.048364494 0.008225487 0.03807268
000050 58 10 00 3c aa 58 e1 3b 78 fc 8a 3c 16 1f f4 bc
       0.007816397 0.0068770247 0.01696609 -0.02979998
000060 60 7d 65 3c 20 52 0d bc 5e 4a e5 3b 2b 8d ac bc
       0.0140069425 -0.008625537 0.0069973907 -0.021063408
000070 18 0a 14 bd 13 92 47 bb 22 60 d3 3b ab ec 75 3c
       -0.03614244 -0.0030452057 0.006450669 0.015010039
000080 97 0c e9 bc 21 04 6f 3d 35 bd 85 bd fa 57 7b bb
       -0.028448386 0.058353547 -0.06530229 -0.0038351999
000090 99 34 01 3d e7 8c 38 3c 9e 5e c8 3c 98 1e e3 3c
       0.0315443 0.0112640625 0.02445918 0.02772455
0000a0 a6 fc 34 3d f3 fe 09 3d 7d 6a 23 bd 1c 96 11 bc
       0.044186257 0.033690404 -0.039896477 -0.0088858865
0000b0 bb b1 95 3b 94 24 bb 3c ab 41 0e 3d ef a2 5a bd
       0.0045683063 0.02284459 0.034730595 -0.05337804
0000c0 fe 4d a6 3c 99 f2 ca bb 9f 72 99 bc
       0.020300861 -0.0061934707 -0.018731413
