SandwichGNN/self_para_.ckpt (torch, 323989 bytes, 336 tensors)

x_embed.weight f4 [8, 2]
00000000: a6b2 babd 9d8d 9c3e 7964 203f 395a 47bc
00000010: b9ca 5c3d ec79 323f fa7f 08be eb1f c7be
00000020: 30f7 e1be 1146 8cbe 539b cc3e 0d78 14bf
00000030: 34e9 5d3e 3e14 f33e cbc1 e8be 4233 723d
-0.09116106 0.30576792 0.6265331 -0.012167507 0.05390427 0.6971729 -0.13330069 -0.3889154
-0.44133902 -0.27397206 0.39962253 -0.5799568 0.21670991 0.4747638 -0.45460352 0.059130915

x_embed.bias f4 [8]
00000000: 1eca b3be 8e77 2a3f e235 5c3a 44c0 27bf
00000010: b2bb f63e 4a70 3abe b830 67be fe3f d3be
-0.3511514 0.66588676 0.0008400363 -0.6552775 0.48190075 -0.18206897 -0.22577178 -0.4125976

encoder.encode_blocks.0.t_construct.conv_layers.conv_layers.0.downConv.weight f4 [2, 2, 2]
00000000: 1ec6 fc3e 8944 323e f93b 563e 6a32 f3be
00000010: 2d99 f5bd f9ab 943e af0c 90bc d257 9bbd
0.493699 0.17408957 0.20921315 -0.474994 -0.119921066 0.29037455 -0.017584173 -0.0758511

encoder.encode_blocks.0.t_construct.conv_layers.conv_layers.0.downConv.bias f4 [2]
00000000: af2f 0e3c c8c6 4c3e
0.008678361 0.19997704

encoder.encode_blocks.0.t_construct.conv_layers.conv_layers.0.norm.weight f4 [2]
00000000: d733 7e3f 8e78 7e3f
0.9929785 0.994027

encoder.encode_blocks.0.t_construct.conv_layers.conv_layers.0.norm.bias f4 [2]
00000000: 5a82 adbc 4534 10bd
-0.02118032 -0.035206098

encoder.encode_blocks.0.t_construct.conv_layers.conv_layers.0.norm.running_mean f4 [2]
00000000: ea25 3ac0 7bbc b1bf
-2.908564 -1.3885645

encoder.encode_blocks.0.t_construct.conv_layers.conv_layers.0.norm.running_var f4 [2]
00000000: f9fb 8d40 0750 c23e
4.4370084 0.3795168

encoder.encode_blocks.0.t_construct.conv_layers.up.weight f4 [8, 2]
00000000: 170a fbbe ba26 9f3d 7c44 0ebf 2c53 8cbe
00000010: ac88 04bf c24d ca3e dc89 213e 2835 233f
00000020: 275a 17bf b4ec a63e 3a20 1bbf 8349 32bf
00000030: 147c 0fbe 7e20 fa3d 5270 0ebf a4b0 b03e
-0.49031135 0.077710584 -0.5557325 -0.27407205 -0.51771045 0.3951245 0.15775245 0.63752985
-0.59121937 0.32602465 -0.6059605 -0.6964342 -0.14012176 0.12213229 -0.5564014 0.34509766

encoder.encode_blocks.0.t_construct.conv_layers.up.bias f4 [8]
00000000: 0dd7 2a3e 90cd 273f 790d 6ebd f4a6 153f
00000010: 9f94 01bf 8501 2b3f cefa 0e3f 71b6 bc3d
0.16683598 0.6554804 -0.058118317 0.58457875 -0.506174 0.66799194 0.5585145 0.092144854

encoder.encode_blocks.0.t_construct.conv_layers.down.weight f4 [2, 8]
00000000: adf4 3bbe 6a8c a93e 5d19 b53d db26 f83b
00000010: f203 02be 36c5 d5bd 7243 3a3e 4a33 7b3e
00000020: 78eb b03d e35c a93e 7981 70bd 5902 57be
00000030: fdb1 acbe ea34 ab3e 3ca8 65bb a9b7 88be
-0.18355055 0.3311494 0.08842728 0.0075729913 -0.12696818 -0.104380056 0.18189791 0.24531284
0.08638662 0.3307868 -0.058717225 -0.2099699 -0.33729544 0.33438808 -0.0035042902 -0.26702622

encoder.encode_blocks.0.t_construct.conv_layers.down.bias f4 [2]
00000000: 5c1c 8fbe 0e38 6b3e
-0.27951324 0.22970602

encoder.encode_blocks.0.t_construct.conv_layers.norm.weight f4 [8]
00000000: 3061 7f3f 5826 7e3f 409f 803f 46b6 803f
00000010: c5f9 7e3f b1a8 803f 3f2b 7d3f e451 803f
0.9975767 0.9927726 1.0048599 1.0055625 0.9959987 1.005148 0.98894113 1.0024991

encoder.encode_blocks.0.t_construct.conv_layers.norm.bias f4 [8]
00000000: 9b64 263b 6ac0 e93a 04e2 aa3b 074f c03b
00000010: 8017 be3b 709d 72bc 86b8 c1bc a1da 76ba
0.0025389555 0.0017833833 0.0052149314 0.005868796 0.0058011413 -0.014808044 -0.023647558 -0.00094167335

encoder.encode_blocks.0.t_feature.self_attn.query_projection.weight f4 [8, 8]
00000000: cd33 823e 536b 4ebe 7391 2b3e bd35 7fbe
00000010: 0769 9f3e bad8 99bd 9484 7e3e 059d 91be
00000020: aaad 073e 76a4 823d a6db 83be 7d82 2fbd
00000030: 4b40 72be 6dba 0cbe 0a46 8e3e a6b0 24be
00000040: b348 15be 9fec eabd 95ce 3c3e e841 f03d
00000050: 5849 5e3e b941 97be bc30 853e 769b b13e
00000060: cc95 973e a930 35be 0d30 713e 8cb6 76be
00000070: f6e2 aebe ac95 95bc 3a4f 1ebe a73a 9f3e
00000080: 9a18 72be 669f 013e 20b9 e63d adc8 783c
00000090: eb05 b0bd e4a5 873e ec18 243e 866f 6fbd
000000a0: f2fc aa3e 0398 983d 7045 b4be 3eff 9fbe
000000b0: 562b a6be 1dcf a23e 82b2 6abe 0b8d a13e
000000c0: 0c49 1a3c aaaf adbe c63e 853e 26db e83d
000000d0: 736a b83e 10b8 a4be 0af4 4bbe 3930 edbd
000000e0: ffd3 7e3e 9bab a13e dc6a 973e 8e40 9c3e
000000f0: 821d ee3d 711a 4d3e 829a 6d3e 034e 903e
0.25430146 -0.20158128 0.16754703 -0.24922843 0.31134817 -0.075120404 0.24855262 -0.2844011
0.13249841 0.06379025 -0.25753516 -0.042849053 -0.23657338 -0.13742991 0.2778781 -0.16083011
-0.14578514 -0.11470913 0.1843818 0.117313206 0.21707666 -0.2954233 0.26013744 0.3468892
0.29606473 -0.17694344 0.23553486 -0.24093074 -0.34157532 -0.018259846 -0.1545991 0.31099436
-0.23642197 0.12658462 0.112657785 0.015184564 -0.08594879 0.26493752 0.16025132 -0.058455966
0.33396107 0.07450869 -0.35209227 -0.31249422 -0.32454938 0.3179864 -0.22919658 0.3155292
0.00941683 -0.33923084 0.26024455 0.11369924 0.36018714 -0.3217168 -0.19917312 -0.11581463
0.24885558 0.31576237 0.29573715 0.30518 0.11626722 0.20029618 0.23203471 0.28184518

encoder.encode_blocks.0.t_feature.self_attn.query_projection.bias f4 [8]
00000000: ca53 cc3d e7c7 423e fa7d 373c 15e9 523e
00000010: 3bc1 41bd 47e7 f7bb 5ee8 11bd 5be4 663e
0.09976919 0.19021569 0.011199469 0.20596726 -0.04730342 -0.007565412 -0.035621993 0.22548048

encoder.encode_blocks.0.t_feature.self_attn.key_projection.weight f4 [8, 8]
00000000: fb6a 9e3e 41fe 8e3e 5f53 4bbe 103c 903e
00000010: 0324 0c3e 73ce 8ebd 9c5b 7cbc 32ba 8dbe
00000020: a7b3 a93e c918 a6be 1370 a1be 90e5 4a3d
00000030: bb44 1f3e 0123 04be 7c29 143e d1a0 46be
00000040: dcc8 483d 18b5 9bbe 9bbf 7f3e c8e6 16be
00000050: 051b 573e 4007 afbe 1cdb 8abd ffa0 543d
00000060: 681c 17be 67e0 033e 29b6 6b3d 3b5e 20be
00000070: 5c7d 92be d69a a0be b65e 87be 2495 a23e
00000080: 97bf 283e af7a a8be a476 343d 6568 5bbe
00000090: 10d4 713e c525 01be 6bd9 97be 41a7 9a3e
000000a0: ed37 563e 5144 a6be d09c d93c 4068 9abd
000000b0: 02e7 503d dd36 2ebe dc62 ce3d 6c7a b03d
000000c0: 4f7a 0fbc cd51 6d3d 7209 a63d 1b34 1d3d
000000d0: f6ff 633e 5766 aebe f268 873e cf4d 70be
000000e0: 384b 4abe 2078 b5bc 40e2 d83a 4cc2 833e
000000f0: ab61 503e bfb8 4dbe 8fe6 febc 4ad9 a3be
0.30940995 0.27928355 -0.19856022 0.28170824 0.13685612 -0.06972971 -0.015402701 -0.27681118
0.33144876 -0.32440785 -0.31530818 0.049535334 0.15553562 -0.12903978 0.1446895 -0.19397284
0.04901968 -0.304116 0.24975435 -0.14736474 0.21006401 -0.3418522 -0.06780073 0.05191135
-0.1475693 0.12878571 0.05754677 -0.15660946 -0.28611267 -0.3136813 -0.26439446 0.3175441
0.16479336 -0.329061 0.044058457 -0.21426542 0.23616052 -0.12612064 -0.29658064 0.3020573
0.20919771 -0.32473996 0.026564032 -0.07539415 0.051001556 -0.17013116 0.1007745 0.086171
-0.008757188 0.05793934 0.0810727 0.03837977 0.2226561 -0.34062454 0.26447254 -0.23467182
-0.19755256 -0.022152007 0.001654692 0.25734174 0.20349757 -0.20090006 -0.031115798 -0.32001716

encoder.encode_blocks.0.t_feature.self_attn.key_projection.bias f4 [8]
00000000: 92f5 9cbd 532e bb3e 385d 7fbe 5275 3ebe
00000010: 7064 85bd da47 963e 7867 92bd d814 463e
-0.07664026 0.3655878 -0.24937904 -0.18599442 -0.065132976 0.29351693 -0.07148641 0.19343889

encoder.encode_blocks.0.t_feature.self_attn.value_projection.weight f4 [8, 8]
00000000: a2e3 abbe 5bef 26bc ef4e ab3c 3455 ea3d
00000010: 961e 05be 2647 31bd 9237 80be 311c 803d
00000020: 50d3 723d b002 01be 163d afbe 66fe 1a3e
00000030: 5fea f2bd f985 9a3e 3f35 703c b22a 893e
00000040: 4f27 273e 1062 92bd 369d 10bd 8eba b03e
00000050: 613e 163e e229 d8bd f481 a6be a8ab 5e3e
00000060: 3122 9e3e e901 453e 0cda 593e 89a5 623e
00000070: 9e00 973e 1e61 ae3e 5239 8d3e b1c5 d03d
00000080: 6a7e 653e 67fa 7f3d 605d 90bd 6f1d afbe
00000090: 866f 073e 141f de3d 5172 323c ca32 44be
000000a0: 2247 4dbe ab6a 413c 1ec4 913e 7b37 4f3d
000000b0: d068 163e 9e61 283e 33a4 383e bb19 1c3e
000000c0: 7e29 2a3e d16c 1ebe 17a1 5c3d 4649 a9be
000000d0: 0379 aa3e 31d6 823e c0f6 d33d 1da4 a33e
000000e0: f89e a23e e6da 4bbe 0b7e 82be 7441 fb3c
000000f0: bab0 6ebd 0b28 903d 60f8 24be cdff 863e
-0.33572108 -0.010188903 0.020911662 0.114420325 -0.12999949 -0.043280743 -0.25042397 0.06255377
0.059283555 -0.12598681 -0.34226292 0.15136108 -0.11861109 0.30180338 0.014661132 0.26790386
0.16323589 -0.0714761 -0.035306178 0.3451733 0.14672233 -0.105548635 -0.3252102 0.21745169
0.3088546 0.1923901 0.21274585 0.22133459 0.29492658 0.3405847 0.27582794 0.10193957
0.22411504 0.06249466 -0.0704906 -0.34202144 0.13226137 0.108457714 0.010891513 -0.1916
-0.20046666 0.011805217 0.28469938 0.05059002 0.1468842 0.16443488 0.18031387 0.1524419
0.1661739 -0.15471198 0.053864565 -0.33063716 0.3329545 0.2555404 0.10349798 0.31961146
0.3176191 -0.19907722 -0.25486788 0.030670859 -0.05827401 0.070388876 -0.16110373 0.26367036

encoder.encode_blocks.0.t_feature.self_attn.value_projection.bias f4 [8]
00000000: b481 0f3d fb16 b9be 3858 d93d 572a 4b3e
00000010: c7f4 963d e268 41be 93a5 033e e060 973e
0.035035804 -0.36150345 0.106125295 0.1984037 0.07370906 -0.18887666 0.1285613 0.29566097

encoder.encode_blocks.0.t_feature.self_attn.out_projection.weight f4 [8, 8]
00000000: 4533 c6bd d92f b13d 86b6 aabe 9c82 26be
00000010: c1b4 7b3d 2885 893e e9cc 793e f8ea 933e
00000020: eb46 8b3e aaff 96be edbd 1c3e eb28 a13e
00000030: b718 f4bd 37fc cb3c 533b 843e c3c5 253e
00000040: 3eca bdbd 6431 7a3e 6764 87be 36cc e738
00000050: 3d3d 39be e9db 873e 11b0 823e 7b72 0d3e
00000060: 55e7 94be 9d13 333c f2e8 06bc 6145 25bd
00000070: 1694 7a3d a2f1 8e3e 7ce2 8e3d 5c86 533e
00000080: 6efc 84be 9906 a7be 98c9 22be 3bc6 933e
00000090: 206b 3f3e a21f 8f3e f44c 9bbe 2888 a5be
000000a0: 4548 63be 916a d0bd f4c4 0dbe c9a7 af3e
000000b0: e6fd b83e faf8 0d3e f3d5 65bd 5864 883c
000000c0: 2809 a33e 4e40 c0bc 5b5d 83be f573 463e
000000d0: 2acc 66be ebb9 f2bd 96bc a83e 664f bb3d
000000e0: ea4c fc3d 0644 3cbe 11ec efbd 3727 af3e
000000f0: b52a d33d 5e3e 9a3e af86 7e3c 9701 f93d
-0.09677748 0.08651704 -0.3334238 -0.16260761 0.061451677 0.26859403 0.24394573 0.28890204
0.27202544 -0.2949193 0.15306826 0.3147653 -0.119187765 0.024900539 0.2582651 0.16188721
-0.0926709 0.24432904 -0.26443788 0.000110529756 -0.18089767 0.26534966 0.25524953 0.13813202
-0.29082742 0.010929969 -0.008234249 -0.040349368 0.061176382 0.27918726 0.06976792 0.20656723
-0.2597384 -0.3262222 -0.15897214 0.28862175 0.18693209 0.2795382 -0.30332148 -0.3233044
-0.22195537 -0.10176576 -0.13844663 0.34307697 0.3613121 0.13864508 -0.05611224 0.01664941
0.31842923 -0.023468163 -0.25657162 0.19380172 -0.2253882 -0.11851867 0.3295638 0.091460034
0.12319358 -0.18385324 -0.11714948 0.34209606 0.1031088 0.30125707 0.015535041 0.12158506

encoder.encode_blocks.0.t_feature.self_attn.out_projection.bias f4 [8]
00000000: 36d1 4abd 321f 59bc d3d7 b4be e243 5bbe
00000010: b603 87be 6082 8d3d 2f4f 6abe 3f8b 7c3e
-0.049515925 -0.013252066 -0.3532091 -0.21412614 -0.2637002 0.06909633 -0.22881769 0.24662493

encoder.encode_blocks.0.t_feature.pos_ffn.w_1.weight f4 [8, 8]
00000000: dc03 a13e bec8 c63d 4450 70be a5a1 a8bd
00000010: 6d05 a53e 8f46 08bb 0edc 58be abc9 fa3d
00000020: 40d3 39be 190c 823e b93f 98be 8e60 2e3e
00000030: 00c2 9ebe 3e4c 86be 857b 2ebe 1951 2c3e
00000040: 9abe b2be d5b8 85bd a3d1 6dbe a73d 353e
00000050: c455 023e 63b7 31be 44bd 9ebe 0cd4 493e
00000060: 2a9e 1ebe e686 9ebd bcb9 97be 27ba b5bd
00000070: 2751 80be 8120 343d 792f 853e 60c2 1fbe
00000080: 622d debc 4d68 82be 0fa2 163e f5ad c8bd
00000090: de93 0b3e 67c9 8e3e 6456 ecbb 8adb 71bd
000000a0: e0c3 83be 556c b0be 7482 bb3e 9615 92be
000000b0: f096 98bd 0c0f 06bd 13b3 57be 6396 a23e
000000c0: 3b0e 973e 8dfc 4ebe 3015 363e 45d4 d6bc
000000d0: e8ba c23c e212 2bbe cf4d 01be e71e fdbd
000000e0: e8df b33b 7a5f 3dbd 84c8 543e 0e7a e3bd
000000f0: 4b4d 8bbe f2bb b0be cca7 71be 8cb5 5fbd
0.31448257 0.09706257 -0.23468119 -0.08233956 0.32230702 -0.002079401 -0.21177694 0.12245496
-0.18146992 0.25399855 -0.29736117 0.1702902 -0.31007385 -0.26230043 -0.17039306 0.16827811
-0.34911042 -0.065293945 -0.23224501 0.176993 0.1272803 -0.17355113 -0.31003773 0.19709796
-0.15490022 -0.077405736 -0.29633892 -0.08873396 -0.25061914 0.04397631 0.2601278 -0.15601492
-0.02712125 -0.254702 0.14710258 -0.09798805 0.13630626 0.27888033 -0.007212447 -0.05904726
-0.25735378 -0.3445765 0.36622965 -0.28532094 -0.07450664 -0.032729194 -0.21064405 0.3175536
0.29503044 -0.20213528 0.1778152 -0.026224265 0.023770764 -0.16706422 -0.12627338 -0.1235941
0.005489338 -0.04623363 0.20779616 -0.111072645 -0.27207407 -0.3451839 -0.23599166 -0.054616496

encoder.encode_blocks.0.t_feature.pos_ffn.w_1.bias f4 [8]
00000000: 0a64 62be 1672 543e f3df fa3d bf5e b8bd
00000010: d694 98be b4e5 52bc 6df7 eebd 8279 06be
-0.22108474 0.20746645 0.12249746 -0.090024464 -0.29801053 -0.012872148 -0.116682865 -0.13132289

encoder.encode_blocks.0.t_feature.pos_ffn.w_2.weight f4 [8, 8]
00000000: 6772 973c 13e5 bd3d b8c8 57be 6658 0ebe
00000010: ea47 66be 9d1a a73e 2c80 0a3d 9846 9cbe
00000020: 9382 97be cb0e 1b3e f823 6e3e 116d 683e
00000030: d674 1a3e b684 3cbe 2eec 8cbd 4184 08be
00000040: 1499 8f3e 0d37 0ebe ab75 4d3e e686 993e
00000050: 7798 a93e b9a4 40be d30f f13d e484 903e
00000060: 160d 813e f7aa efbd 21de 56be 420c 713e
00000070: 6c76 7b3e de61 8bbe 39ee a2bd 5f50 82be
00000080: 753c a83b f69e 313e 8bb1 76be 4efb 333d
00000090: 4a5c b4be f88d 913d 06ca e63b 6d80 923e
000000a0: 8be0 413e a997 22bd 9155 5cbd e8a1 3bbe
000000b0: 8bf4 783e 5cbb 853e d463 26be 3a6a a3be
000000c0: ff07 393d e226 e83b a2ce 47be c68b 5fbe
000000d0: d60a b03e 7e7c 5fbd cb45 0c3b 750c 313e
000000e0: 7d24 783e 0347 51be e06e 6c3e 0b01 29be
000000f0: 0246 a7be ab45 653e 90c3 423e 5e1f 2bbe
0.018487168 0.09272208 -0.21072662 -0.13900909 -0.2248837 0.32637492 0.03381364 -0.3052261
-0.29591808 0.15142362 0.23255908 0.22697856 0.15083632 -0.1841 -0.06880985 -0.13331701
0.28046477 -0.13888188 0.20064418 0.29985732 0.33124134 -0.18812837 0.11770596 0.28226388
0.25205296 -0.11702531 -0.20983173 0.23539832 0.24556893 -0.27223104 -0.079555936 -0.25451943
0.00513416 0.17345795 -0.24091165 0.043940835 -0.3522666 0.071071565 0.007043126 0.28613606
0.18933313 -0.039695416 -0.05379254 -0.18323481 0.24312036 0.26119506 -0.16249019 -0.31916982
0.04517364 0.0070847133 -0.19512418 -0.21830663 0.34383267 -0.054562084 0.0021403905 0.17289908
0.24232669 -0.20437245 0.2308917 -0.16504304 -0.326706 0.22389857 0.19019914 -0.16711184

encoder.encode_blocks.0.t_feature.pos_ffn.w_2.bias f4 [8]
00000000: a7a5 963e 3e52 4d3e e11b 9c3e d7d9 f8bd
00000010: 4e73 16bd c372 9f3d f50d b9be f596 223e
0.29423258 0.20050904 0.3049002 -0.12150925 -0.036731057 0.07785561 -0.3614346 0.15877898

encoder.encode_blocks.0.t_feature.pos_ffn.layer_norm.weight f4 [8]
00000000: 7319 823f 43c8 7e3f 77da 803f c45e 7b3f
00000010: a2be 803f 907c 833f 4114 7b3f c361 7e3f
1.0164016 0.99524325 1.006667 0.98191476 1.0058177 1.0272388 0.9807778 0.9936792

encoder.encode_blocks.0.t_feature.pos_ffn.layer_norm.bias f4 [8]
00000000: 20a3 a83b 2fbd 373c fb9b 1bbc 8b72 6d3c
00000010: b5e4 593c d659 5f3b b438 1a3b a1ac 65bc
0.005146399 0.0112145385 -0.009497638 0.014492641 0.013299157 0.0034080646 0.0023532333 -0.014018209

encoder.encode_blocks.0.s_feature.gnn1_embed.convs.0.bias f4 [8]
00000000: 83ed 753c d0d7 c43b a27e 7b3a 0f51 0f3c
00000010: 7dc8 a9ba abf7 2abb 634d d1ba 83ed b739
0.0150102405 0.006007172 0.000959376 0.008747353 -0.0012953427 -0.0026087563 -0.0015968498 0.0003508144

encoder.encode_blocks.0.s_feature.gnn1_embed.convs.0.lin.weight f4 [8, 8]
00000000: 7341 08bf 3a9e 06bf 1b94 883e 676a e43e
00000010: 835b 663e 67a7 dd3d 1757 c0be 266a 0fbd
00000020: ddbf 393e 0de9 a93e a3b7 07bd 9214 41b8
00000030: f45d 103f 2a2d a23e bb9b 023d a49f f5bd
00000040: 1efb 60be b9de bc3e 1b9f 1cbe 8068 853e
00000050: a0a6 a73e 2544 13bd c541 003f 916c 30be
00000060: a783 d8be a436 c8be 81b2 05bf b811 4fbe
00000070: fe8d a33e 2555 033f 7138 a73c 9432 a6bd
00000080: 8928 103f 2bf1 de3e b253 d8be ed6a 94b0
00000090: 3bd4 08be 4007 663d 79bd 8b38 8ed5 2abe
000000a0: 66cc d7bd cba4 17bf 85ce e73e dddb 863d
000000b0: 00af 3fbe 5030 0a3e 0390 7e3e 7eea 30bd
000000c0: 22aa 843e 6fb1 a4be fae6 f23e 4979 7fbe
000000d0: fd31 1bbf 3de1 abbe 8b5c 3dbc 77fb bb3d
000000e0: 3b7e 0e3f 3bcc 0538 7fe3 10be a1af 603e
000000f0: b387 07bf bb42 25bd 5dbf 3a3e b43f 7ebd
-0.5322487 -0.52585185 0.26675496 0.4461243 0.22495846 0.10822945 -0.37566444 -0.03501334
0.18139596 0.33185616 -0.033134114 -4.6033943e-05 0.5639336 0.31675082 0.031886797 -0.1199334
-0.21970794 0.36888674 -0.15295069 0.2605629 0.32744312 -0.03595366 0.50100356 -0.17228915
-0.42287943 -0.39104187 -0.522255 -0.20221603 0.3194427 0.51301795 0.020412656 -0.08115116
0.5631185 0.43543372 -0.42251354 -1.0798807e-09 -0.1336221 0.056159258 6.6633285e-05 -0.16683027
-0.10537033 -0.5923583 0.4527475 0.06584904 -0.18719101 0.13494992 0.24859624 -0.04319238
0.2591105 -0.3216662 0.47441846 -0.2494861 -0.6062315 -0.3357028 -0.0115577085 0.091788225
0.5566136 3.1899875e-05 -0.14149283 0.21941997 -0.52941436 -0.040346842 0.18237062 -0.06207247

encoder.encode_blocks.0.s_feature.gnn1_embed.convs.1.bias f4 [8]
00000000: 2925 1ebc 513e f93b 89ce 83bb 24ad 753b
00000010: 7298 c4bb 4977 60bc ada8 c63b 232f 193c
-0.009652414 0.0076063056 -0.0040224236 0.0037487233 -0.005999618 -0.013700315 0.006062588 0.009349617

encoder.encode_blocks.0.s_feature.gnn1_embed.convs.1.lin.weight f4 [8, 8]
00000000: 5244 953e 53f9 983e 7202 c43e 24c2 1c3f
00000010: 7ffd 2abe be27 6fbe 3109 0c3f de24 b5bc
00000020: 71cd 11bf faec cb3e fb0e dd3e c83a 27be
00000030: fdb0 52bd fc39 063e a2e2 0ebe 3b8b 323e
00000040: d781 debe c873 7a3e d1e9 6c3e 6099 9cbe
00000050: fe03 e6be 90b0 0abe 0d84 673e a39e 9ebd
00000060: 6cbc 283e 9d46 13bf d196 c3be 6998 a2bc
00000070: 4d40 f53e d909 aebe 5845 d8be 1429 07bf
00000080: d1c1 a3be beae d7be e36e 383e ab56 6b3e
00000090: 16c3 9f3e d718 9a3d 4939 9f3e 7a1f 023f
000000a0: ba3f 23be 5adf d0bd 179e 1cbe 61fd b63e
000000b0: 9073 893e 998e bf3d 167a 0d3f f93e aabe
000000c0: 506b 5cbe dd25 00be e8d7 3f3e 8946 8ebe
000000d0: e3c8 123f d853 04bf f269 9e3c 1b5b 0e3e
000000e0: ed3b 69be d5a3 943d ee2c 5f3d cd04 913c
000000f0: 1758 08bf a006 19bf a0a6 023f b9d0 22be
0.29153687 0.2987772 0.38283116 0.61233735 -0.16698264 -0.23355004 0.54701525 -0.022112306
-0.56954104 0.39829236 0.43175492 -0.16331017 -0.05143832 0.13108057 -0.13953641 0.17435925
-0.43458435 0.2445823 0.23136069 -0.30585766 -0.4492492 -0.13543916 0.22608967 -0.07745101
0.16478127 -0.5752962 -0.38201 -0.019848065 0.4790062 -0.33991888 -0.42240405 -0.52797055
-0.31983808 -0.42125505 0.1801105 0.2298228 0.31203526 0.07524269 0.31098393 0.5082928
-0.15942279 -0.10198851 -0.15294681 0.35740188 0.2684598 0.0935337 0.55264413 -0.3325117
-0.21525311 -0.12514444 0.18734705 -0.2778819 0.5733778 -0.51690435 0.019337628 0.13901941
-0.22776766 0.07257811 0.054486208 0.017702485 -0.53259414 -0.59775734 0.510355 -0.15899934

encoder.encode_blocks.0.s_feature.gnn1_embed.convs.2.bias f4 [8]
00000000: b317 adbc 1a67 c3bb d022 87bb bd2b 70bc
00000010: babc 85bc fe4b 983b 5774 2a3c 689d 0abc
-0.021129465 -0.0059632184 -0.004124023 -0.0146588655 -0.016325343 0.004647731 0.010403714 -0.00846038

encoder.encode_blocks.0.s_feature.gnn1_embed.convs.2.lin.weight f4 [8, 8]
00000000: e001 123f afb7 b03e 9948 e5be ad44 e23e
00000010: 5b57 8c3e 3788 a7be 10cd 10bf 3f2f a4be
00000020: 269e 6a3c 5652 30bd 385b 063f 3782 1abc
00000030: c317 fc3e accd a5be 34a0 dd3e 708e bb3e
00000040: 9f40 a03e 49e4 02bf 529a 6fbe 664c a93e
00000050: 5c37 1a3f 864b e8be cdc5 0b3f bc30 d23d
00000060: 5c2c d8be 57ad 6bbe 559b 0cbe 1b56 a7be
00000070: 75f3 a73c a15a febd 3573 353e e008 d0bd
00000080: cf99 6d3e c422 73be 4f3f d9be dc66 c63e
00000090: f681 e03e 3c45 eb3e 421a d1bd 52d5 d6be
000000a0: 753b d73e 1f3f debd 97ea e7bd 7bd7 25be
000000b0: ee0e 8d3c 8174 df3e bcdf 863e c4de 14bf
000000c0: be0c fabe 73b1 55be 896f fdbe 0472 20bf
000000d0: c7d9 a4bd 789c 04bf 1acf 453e 2394 91bb
000000e0: d18c babd 4195 09bf 46d0 a1be f9a5 04bd
000000f0: c29d 97be cf92 bdbe e253 ec3e eb50 4c3d
0.5703411 0.3451514 -0.4478195 0.4419302 0.27410397 -0.3272111 -0.565629 -0.32067296
0.014319932 -0.04304727 0.5248294 -0.00943046 0.4923688 -0.32383478 0.43286288 0.3663211
0.31299302 -0.51129586 -0.23398712 0.330661 0.6024072 -0.4537012 0.54598695 0.102632016
-0.42221344 -0.23015343 -0.1373113 -0.3268288 0.020501832 -0.1241963 0.17719729 -0.10157943
0.23203205 -0.23743731 -0.42431113 0.3875035 0.43849152 0.4595126 -0.102100864 -0.41959625
0.4203755 -0.10851883 -0.11324041 -0.1619548 0.017219033 0.43643573 0.2634257 -0.58152413
-0.48837847 -0.20868473 -0.49499157 -0.62673974 -0.0804935 -0.5180125 0.19317284 -0.004442708
-0.0910889 -0.5374337 -0.31604213 -0.032384846 -0.29612547 -0.3702607 0.46157748 0.049881857

encoder.encode_blocks.0.s_feature.gnn1_embed.bns.0.weight f4 [8]
00000000: abab 7f3f 777f 813f 513d 813f bb9e 7d3f
00000010: da12 7f3f 739c 7e3f 7823 803f 2d7a 7f3f
0.9987132 1.0117024 1.0096837 0.9907033 0.9963814 0.9945747 1.0010824 0.997958

encoder.encode_blocks.0.s_feature.gnn1_embed.bns.0.bias f4 [8]
00000000: 8306 a5bb 5ecb 943b 9d76 b23b 8c4a 5bbc
00000010: 197b 0fbc 6154 3cbc e780 49bc ab15 5e3b
-0.0050361766 0.004540845 0.0054462687 -0.013384473 -0.008757376 -0.011494727 -0.012298799 0.0033887427

encoder.encode_blocks.0.s_feature.gnn1_embed.bns.0.running_mean f4 [8]
00000000: 017f 173f 2dd7 b93f 842a 573f 90e8 533f
00000010: edbf e31d 383d d61b 8389 251c 7429 4a1c
0.5917817 1.4518791 0.8404925 0.8277674 6.0284846e-21 3.5442892e-22 5.477165e-22 6.688977e-22

encoder.encode_blocks.0.s_feature.gnn1_embed.bns.0.running_var f4 [8]
00000000: a8fe 1b3c b613 753d 8340 a53c 5146 9d3c
00000010: f00e f71e 001f f61e 7035 f61e d351 f61e
0.009521164 0.05983325 0.020172363 0.019198569 2.615832e-20 2.6059084e-20 2.6068364e-20 2.6080105e-20

encoder.encode_blocks.0.s_feature.gnn1_embed.bns.1.weight f4 [8]
00000000: b862 803f 4e1d 813f b33a 783f 4861 823f
00000010: 0b74 7e3f 8bb4 7d3f 7efc 803f 37ac 7f3f
1.0030127 1.0087068 0.9696457 1.0185938 0.9939582 0.9910361 1.0077055 0.99872154

encoder.encode_blocks.0.s_feature.gnn1_embed.bns.1.bias f4 [8]
00000000: be5b 9dbb 0bbd 833c 2c1e 983c 482d 61bc
00000010: 026f b6bc f4f3 bf3b be64 303b d875 8c3c
-0.0048021963 0.016081354 0.018569075 -0.013743706 -0.02226973 0.005857939 0.0026915516 0.017146036

encoder.encode_blocks.0.s_feature.gnn1_embed.bns.1.running_mean f4 [8]
00000000: 9cfe d63e 310e 1e3d 7f9e bc3d 3485 913e
00000010: 7260 dd3d b4db 0e3c 6be7 1d3e c3e4 183d
0.41991127 0.038587753 0.09209918 0.28421938 0.10809411 0.0087193735 0.1542031 0.03732754

encoder.encode_blocks.0.s_feature.gnn1_embed.bns.1.running_var f4 [8]
00000000: 23b1 de3e 1fd3 323b 221e 7a3c 3414 1c3e
00000010: 8b97 c33c bd2f cc39 aa0d 2f3d 4346 f93a
0.4349452 0.0027286483 0.015265973 0.15242082 0.023875972 0.0003894548 0.04273764 0.0019018132

encoder.encode_blocks.0.s_feature.gnn1_embed.bns.2.weight f4 [8]
00000000: 59d4 7a3f 7f73 813f 716b 813f 1720 823f
00000010: 5e6f 7a3f 3c93 7e3f dd14 813f a0f8 803f
0.97980267 1.0113372 1.0110914 1.0166043 0.9782618 0.9944341 1.0084492 1.0075874

encoder.encode_blocks.0.s_feature.gnn1_embed.bns.2.bias f4 [8]
00000000: 23fc 113c 2f55 b83a a651 57bc d140 683c
00000010: 4668 953b e012 113c d7df ae3c 3a48 cabc
0.008910212 0.0014063473 -0.013142025 0.01417561 0.0045595495 0.008854598 0.02134697 -0.024692643

encoder.encode_blocks.0.s_feature.gnn1_embed.bns.2.running_mean f4 [8]
00000000: 47e4 0d3f eed0 1c3f 8440 e93e 1ae4 433e
00000010: bf56 dd3d 2476 523e 0ba2 d13e 162b 593e
0.5542645 0.612563 0.45557034 0.19129983 0.10807561 0.2055288 0.4094394 0.21207842

encoder.encode_blocks.0.s_feature.gnn1_embed.bns.2.running_var f4 [8]
00000000: 01c2 3d3f c530 893f 7f57 f43e 150a 303d
00000010: 5377 ca3d 533e e03d 6a7e 373e 4e5c 583d
0.7412415 1.0718008 0.47723004 0.042978365 0.098860405 0.109493874 0.17919317 0.052822404

encoder.encode_blocks.0.s_feature.mlp2.lin1.weight f4 [8, 384]
00000000: b3c7 9d3c aecf 213d ca2f 17bd 6f06 80bc
00000010: b429 043d 6b1b 153d fc3c 87bc fabd 073d
00000020: cda7 c3bb 5ced 42bc 21e0 333c e1bd 19bd
00000030: 7432 b03c 7530 eabc be71 5a3d 2520 de3a
00000040: c37a de3c d5c0 333b 7513 06bb a1a7 c03c
00000050: 6854 f03c cbd5 64bd 950a 53bb a621 6abc
00000060: 4c7b bdbb 0999 263d 0f21 03bd a48d cdbc
00000070: 1608 29bd a551 60bc e24b be3c 9061 88bc
00000080: 263c 6bbc 4716 47bd 895e 293c c605 f2bc
00000090: df24 fa3c 2317 d13c e418 02bd baed 903b
000000a0: 6721 10bb b894 4b3d 172d 28bd 4eb6 92bc
000000b0: d4e8 333d 75af a2bc 7bca c3bb e1f6 40bd
000000c0: adf6 713c bbb2 a33b 1e3e b8bc 7fa3 07bc
000000d0: 6f51 023d ca1d 2dbd 7e01 16bd d5aa 7f3c
000000e0: e058 b8bc 0a16 493c bb86 1abb 04e4 293d
000000f0: 617f f4bc 46cb d53c a4f2 f83c 4258 9e3a
00000100: 608c 633c 6a62 08bd 742f 4d3d 1d97 50bc
00000110: c10e 8c3c 3a54 f63c f376 83ba 15b4 3d3b
00000120: a5d3 1ebd 46bc 823b def2 333d c547 d1bb
00000130: 9944 3cbd 6c10 1a3d 30e2 3a3d b575 cbbc
00000140: eef5 02bd 6796 f13c 1792 483c 5deb 19bd
00000150: 8817 5b3c 4f9c 39bd 1f58 9b3c 2f2a eabc
00000160: 7f07 ce3b 59ef 57bd 8706 20bd d0f6 533b
00000170: 3c10 e1bb a738 39bd 5197 19bd 3a0f 87bc
00000180: 63a2 c53c deeb 473c 1146 41bc 8e12 5a3d
00000190: afaf a63c a822 073d 3e23 b63c 8c31 0d3d
000001a0: 5236 123c 1b38 b83c 3703 a8bc 443c 343d
000001b0: 823a 123d c859 29bd 7296 bebc 5311 183d
000001c0: aad9 083d ac3b 2ebd a9ee bb3c fc73 04bd
000001d0: 5ad5 b2bc 38fa 56bd 63c1 cabc eda2 52bc
000001e0: 1532 0c3d c740 e0bb 202b 08bd bfc0 073d
000001f0: 65df 05bb 7974 ac3c 633b 543d ba6a 53bd
00000200: ac7c b2b9 e581 fbba 638f 0ebd 5047 1f3d
00000210: 468d 2d3c a618 ecbc 36b3 9cbb e3bf 34bd
00000220: d456 62bd fb99 a4bb 1a03 62bc 2320 c5bb
00000230: c6d4 563d a736 6bbc ee5b e73c db4b d83b
00000240: 26ba 9ebc c15e 1a3d fcb4 4e3d 4996 19bd
00000250: 8e0e 03bd b100 44bd 8dde 30bd 9ba2 0fbd
00000260: 7d6d a63c 030f 11bd ca26 303d 7934 a93c
00000270: 3790 e9bc 854d 2d3d bd7d ff3b c444 24bb
00000280: b76c 0c3d e10d 41bd e51f a8bb 3d7b 06bd
00000290: 8b6f c6bc 6c6f 0e3c 31c3 12bc 2794 2ebd
000002a0: c496 c5bc 5687 a33c bbcd 1c3d 22db 8939
000002b0: 70f8 363c 772b 0cbd d3b8 bc3b 0afc 36bd
000002c0: 845c c6bb 5ac3 5abc df35 a03b 5dd5 353d
000002d0: 7eec 0b3c 736e d5bc 0dbd a6bc 6e27 38bc
000002e0: a0f6 4fbd 0afc 00bd dc15 3d3d 2430 8e3c
000002f0: 4e85 b5bc 3bc8 41bd 0199 02bd b9b6 83bc
00000300: 89ec 6abc ed9a 53bd ab74 013d d0fe 183d
00000310: b6c2 22bc 2867 163d 7096 6cbb da97 593b
00000320: eaab 02bd dec8 a8bc 4fd5 6ebb 6262 cdbc
00000330: 195e 94b9 de9a 05bd 663a 4d3d 5c4f d0bc
00000340: 70c6 02bd 03f7 05bd 6026 5b3d dac5 08bd
00000350: faaa cebc 9228 61bd 709c 013d d560 313d
00000360: 2d10 36bd 55db 8cbb 09f0 98bc bb09 ee3c
00000370: 6aeb 36bd 0fd6 133d 78d2 673d e886 42bd
00000380: 22d9 d23c 8ece e0bc 70ee 16bd e581 c63b
00000390: c3e3 803c 55a9 1b3d b89b 3abc 490e b9bc
000003a0: f8ec 01bd 0748 17bc 0214 1b3d 10e7 0dbd
000003b0: a68b 2f3d dd23 13bc 03fe b7bc 839a b8bc
000003c0: 3c85 10bd ec7b 03bd 43db 27bb 8ba4 5e3c
000003d0: 1524 14bd fc78 08bd 1fe2 5abc b1f6 ad3c
000003e0: 6f50 c3bc 8574 23bd 9fbe 403d 8ba5 463b
000003f0: c029 953c fdab e9bc 3b77 033d 3a97 35bd
0.019260263 0.0395047 -0.03691081 -0.015628068 0.032266334 0.0364031 -0.016508572 0.03314016
-0.005970931 -0.011897411 0.010978729 -0.0375346 0.021508433 -0.02858756 0.05333113 0.0016946836
0.027158147 0.002742817 -0.0020458375 0.023517432 0.029337123 -0.05586795 -0.0032202352 -0.014290249
-0.0057825204 0.04067329 -0.03201395 -0.025091954 -0.041267477 -0.013691341 0.023229543 -0.016648084
-0.014357602 -0.04860523 0.01033748 -0.029543769 0.03053516 0.025523728 -0.03176202 0.0044228705
-0.0021992566 0.049702376 -0.041058626 -0.017909195 0.043923214 -0.019859055 -0.0059750653 -0.047110442
0.014768285 0.0049956716 -0.022490557 -0.008278727 0.031815942 -0.042264737 -0.036622517 0.015604694
-0.022503316 0.012273321 -0.002357884 0.04147722 -0.029845895 0.026097905 0.030389138 0.0012080746
0.0138884485 -0.03329698 0.050094083 -0.012731341 0.017096879 0.03006946 -0.0010029956 0.0028946449
-0.03877606 0.003989729 0.043932788 -0.0063867294 -0.045963857 0.037613317 0.045625865 -0.0248364
-0.031972818 0.029490663 0.012241862 -0.037577976 0.0133723095 -0.045315083 0.018962918 -0.028584568
0.0062875147 -0.052718494 -0.039068725 0.0032343157 -0.0068683904 -0.045220044 -0.037497822 -0.016486753
0.024125284 0.012202231 -0.01179649 0.05324035 0.020347444 0.032992035 0.022233602 0.03447108
0.008924084 0.02248769 -0.020509345 0.044002786 0.03570033 -0.041345388 -0.023265097 0.037125897
0.033410706 -0.042537376 0.02294095 -0.032337174 -0.02183025 -0.05248472 -0.024750417 -0.012856227
0.03422745 -0.0068436596 -0.033244252 0.0331428 -0.0020427343 0.021051632 0.051814448 -0.051615454
-0.00034043693 -0.0019188492 -0.034804713 0.03888637 0.010592764 -0.028820347 -0.004782106 -0.04412831
-0.055258587 -0.0050232387 -0.013794685 -0.006015794 0.05244901 -0.014356292 0.028242078 0.0066008396
-0.019375872 0.03768802 0.05046557 -0.03749684 -0.031996302 -0.047852222 -0.04318099 -0.035067182
0.02031588 -0.035414707 0.043005742 0.020654904 -0.02851115 0.042310257 0.0077969716 -0.0025065402
0.034283366 -0.047132377 -0.0051307552 -0.032832373 -0.02422311 0.008693557 -0.00895767 -0.042621758
-0.024119742 0.019961994 0.038282137 0.00026293943 0.011167631 -0.03422114 0.0057593375 -0.044673957
-0.006053509 -0.0133522395 0.0048892344 0.044392932 0.008540271 -0.026053643 -0.020353818 -0.0112398695
-0.05077231 -0.031490363 0.046163425 0.01735694 -0.022158291 -0.047310095 -0.031884197 -0.01607834
-0.014338621 -0.05166142 0.031605404 0.037352383 -0.009934118 0.03671947 -0.003610041 0.0033202083
-0.03190223 -0.020603593 -0.003644306 -0.025071327 -0.00028298868 -0.032618396 0.05010452 -0.025428466
-0.031927526 -0.03270627 0.053503394 -0.03339181 -0.025228012 -0.05497033 0.03164333 0.043305237
-0.04444902 -0.0042986074 -0.018669145 0.029057374 -0.044658102 0.036092814 0.056597203 -0.047491938
0.025738303 -0.027442243 -0.036848485 0.006057965 0.015733605 0.038003284 -0.011389665 -0.02258982
-0.03172013 -0.009233481 0.037860878 -0.034644186 0.04285779 -0.008980718 -0.02245999 -0.022534614
-0.035283312 -0.032100603 -0.0025612868 0.013589035 -0.036167223 -0.033318505 -0.0133595755 0.021235796
-0.023842065 -0.039906044 0.04705679 0.0030311074 0.018208385 -0.028524393 0.03209613 -0.044333674

encoder.encode_blocks.0.s_feature.mlp2.lin1.bias f4 [8]
00000000: 27d3 783b bbc1 63bc 45c6 f43c 831a 34bb
00000010: 6233 00bc 1933 22bd 84cb d1bb 3aee 02bd
0.0037967653 -0.013901169 0.029879699 -0.0027481623 -0.007824751 -0.03959951 -0.006402435 -0.03196547

encoder.encode_blocks.0.s_feature.mlp2.mlp1.0.weight f4 [8, 384]
00000000: b3c7 9d3c aecf 213d ca2f 17bd 6f06 80bc
00000010: b429 043d 6b1b 153d fc3c 87bc fabd 073d
00000020: cda7 c3bb 5ced 42bc 21e0 333c e1bd 19bd
00000030: 7432 b03c 7530 eabc be71 5a3d 2520 de3a
00000040: c37a de3c d5c0 333b 7513 06bb a1a7 c03c
00000050: 6854 f03c cbd5 64bd 950a 53bb a621 6abc
00000060: 4c7b bdbb 0999 263d 0f21 03bd a48d cdbc
00000070: 1608 29bd a551 60bc e24b be3c 9061 88bc
00000080: 263c 6bbc 4716 47bd 895e 293c c605 f2bc
00000090: df24 fa3c 2317 d13c e418 02bd baed 903b
000000a0: 6721 10bb b894 4b3d 172d 28bd 4eb6 92bc
000000b0: d4e8 333d 75af a2bc 7bca c3bb e1f6 40bd
000000c0: adf6 713c bbb2 a33b 1e3e b8bc 7fa3 07bc
000000d0: 6f51 023d ca1d 2dbd 7e01 16bd d5aa 7f3c
000000e0: e058 b8bc 0a16 493c bb86 1abb 04e4 293d
000000f0: 617f f4bc 46cb d53c a4f2 f83c 4258 9e3a
00000100: 608c 633c 6a62 08bd 742f 4d3d 1d97 50bc
00000110: c10e 8c3c 3a54 f63c f376 83ba 15b4 3d3b
00000120: a5d3 1ebd 46bc 823b def2 333d c547 d1bb
00000130: 9944 3cbd 6c10 1a3d 30e2 3a3d b575 cbbc
00000140: eef5 02bd 6796 f13c 1792 483c 5deb 19bd
00000150: 8817 5b3c 4f9c 39bd 1f58 9b3c 2f2a eabc
00000160: 7f07 ce3b 59ef 57bd 8706 20bd d0f6 533b
00000170: 3c10 e1bb a738 39bd 5197 19bd 3a0f 87bc
00000180: 63a2 c53c deeb 473c 1146 41bc 8e12 5a3d
00000190: afaf a63c a822 073d 3e23 b63c 8c31 0d3d
000001a0: 5236 123c 1b38 b83c 3703 a8bc 443c 343d
000001b0: 823a 123d c859 29bd 7296 bebc 5311 183d
000001c0: aad9 083d ac3b 2ebd a9ee bb3c fc73 04bd
000001d0: 5ad5 b2bc 38fa 56bd 63c1 cabc eda2 52bc
000001e0: 1532 0c3d c740 e0bb 202b 08bd bfc0 073d
000001f0: 65df 05bb 7974 ac3c 633b 543d ba6a 53bd
00000200: ac7c b2b9 e581 fbba 638f 0ebd 5047 1f3d
00000210: 468d 2d3c a618 ecbc 36b3 9cbb e3bf 34bd
00000220: d456 62bd fb99 a4bb 1a03 62bc 2320 c5bb
00000230: c6d4 563d a736 6bbc ee5b e73c db4b d83b
00000240: 26ba 9ebc c15e 1a3d fcb4 4e3d 4996 19bd
00000250: 8e0e 03bd b100 44bd 8dde 30bd 9ba2 0fbd
00000260: 7d6d a63c 030f 11bd ca26 303d 7934 a93c
00000270: 3790 e9bc 854d 2d3d bd7d ff3b c444 24bb
00000280: b76c 0c3d e10d 41bd e51f a8bb 3d7b 06bd
00000290: 8b6f c6bc 6c6f 0e3c 31c3 12bc 2794 2ebd
000002a0: c496 c5bc 5687 a33c bbcd 1c3d 22db 8939
000002b0: 70f8 363c 772b 0cbd d3b8 bc3b 0afc 36bd
000002c0: 845c c6bb 5ac3 5abc df35 a03b 5dd5 353d
000002d0: 7eec 0b3c 736e d5bc 0dbd a6bc 6e27 38bc
000002e0: a0f6 4fbd 0afc 00bd dc15 3d3d 2430 8e3c
000002f0: 4e85 b5bc 3bc8 41bd 0199 02bd b9b6 83bc
00000300: 89ec 6abc ed9a 53bd ab74 013d d0fe 183d
00000310: b6c2 22bc 2867 163d 7096 6cbb da97 593b
00000320: eaab 02bd dec8 a8bc 4fd5 6ebb 6262 cdbc
00000330: 195e 94b9 de9a 05bd 663a 4d3d 5c4f d0bc
00000340: 70c6 02bd 03f7 05bd 6026 5b3d dac5 08bd
00000350: faaa cebc 9228 61bd 709c 013d d560 313d
00000360: 2d10 36bd 55db 8cbb 09f0 98bc bb09 ee3c
00000370: 6aeb 36bd 0fd6 133d 78d2 673d e886 42bd
00000380: 22d9 d23c 8ece e0bc 70ee 16bd e581 c63b
00000390: c3e3 803c 55a9 1b3d b89b 3abc 490e b9bc
000003a0: f8ec 01bd 0748 17bc 0214 1b3d 10e7 0dbd
000003b0: a68b 2f3d dd23 13bc 03fe b7bc 839a b8bc
000003c0: 3c85 10bd ec7b 03bd 43db 27bb 8ba4 5e3c
000003d0: 1524 14bd fc78 08bd 1fe2 5abc b1f6 ad3c
000003e0: 6f50 c3bc 8574 23bd 9fbe 403d 8ba5 463b
000003f0: c029 953c fdab e9bc 3b77 033d 3a97 35bd
0.019260263 0.0395047 -0.03691081 -0.015628068 0.032266334 0.0364031 -0.016508572 0.03314016
-0.005970931 -0.011897411 0.010978729 -0.0375346 0.021508433 -0.02858756 0.05333113 0.0016946836
0.027158147 0.002742817 -0.0020458375 0.023517432 0.029337123 -0.05586795 -0.0032202352 -0.014290249
-0.0057825204 0.04067329 -0.03201395 -0.025091954 -0.041267477 -0.013691341 0.023229543 -0.016648084
-0.014357602 -0.04860523 0.01033748 -0.029543769 0.03053516 0.025523728 -0.03176202 0.0044228705
-0.0021992566 0.049702376 -0.041058626 -0.017909195 0.043923214 -0.019859055 -0.0059750653 -0.047110442
0.014768285 0.0049956716 -0.022490557 -0.008278727 0.031815942 -0.042264737 -0.036622517 0.015604694
-0.022503316 0.012273321 -0.002357884 0.04147722 -0.029845895 0.026097905 0.030389138 0.0012080746
0.0138884485 -0.03329698 0.050094083 -0.012731341 0.017096879 0.03006946 -0.0010029956 0.0028946449
-0.03877606 0.003989729 0.043932788 -0.0063867294 -0.045963857 0.037613317 0.045625865 -0.0248364
-0.031972818 0.029490663 0.012241862 -0.037577976 0.0133723095 -0.045315083 0.018962918 -0.028584568
0.0062875147 -0.052718494 -0.039068725 0.0032343157 -0.0068683904 -0.045220044 -0.037497822 -0.016486753
0.024125284 0.012202231 -0.01179649 0.05324035 0.020347444 0.032992035 0.022233602 0.03447108
0.008924084 0.02248769 -0.020509345 0.044002786 0.03570033 -0.041345388 -0.023265097 0.037125897
0.033410706 -0.042537376 0.02294095 -0.032337174 -0.02183025 -0.05248472 -0.024750417 -0.012856227
0.03422745 -0.0068436596 -0.033244252 0.0331428 -0.0020427343 0.021051632 0.051814448 -0.051615454
-0.00034043693 -0.0019188492 -0.034804713 0.03888637 0.010592764 -0.028820347 -0.004782106 -0.04412831
-0.055258587 -0.0050232387 -0.013794685 -0.006015794 0.05244901 -0.014356292 0.028242078 0.0066008396
-0.019375872 0.03768802 0.05046557 -0.03749684 -0.031996302 -0.047852222 -0.04318099 -0.035067182
0.02031588 -0.035414707 0.043005742 0.020654904 -0.02851115 0.042310257 0.0077969716 -0.0025065402
0.034283366 -0.047132377 -0.0051307552 -0.032832373 -0.02422311 0.008693557 -0.00895767 -0.042621758
-0.024119742 0.019961994 0.038282137 0.00026293943 0.011167631 -0.03422114 0.0057593375 -0.044673957
-0.006053509 -0.0133522395 0.0048892344 0.044392932 0.008540271 -0.026053643 -0.020353818 -0.0112398695
-0.05077231 -0.031490363 0.046163425 0.01735694 -0.022158291 -0.047310095 -0.031884197 -0.01607834
-0.014338621 -0.05166142 0.031605404 0.037352383 -0.009934118 0.03671947 -0.003610041 0.0033202083
-0.03190223 -0.020603593 -0.003644306 -0.025071327 -0.00028298868 -0.032618396 0.05010452 -0.025428466
-0.031927526 -0.03270627 0.053503394 -0.03339181 -0.025228012 -0.05497033 0.03164333 0.043305237
-0.04444902 -0.0042986074 -0.018669145 0.029057374 -0.044658102 0.036092814 0.056597203 -0.047491938
0.025738303 -0.027442243 -0.036848485 0.006057965 0.015733605 0.038003284 -0.011389665 -0.02258982
-0.03172013 -0.009233481 0.037860878 -0.034644186 0.04285779 -0.008980718 -0.02245999 -0.022534614
-0.035283312 -0.032100603 -0.0025612868 0.013589035 -0.036167223 -0.033318505 -0.0133595755 0.021235796
-0.023842065 -0.039906044 0.04705679 0.0030311074 0.018208385 -0.028524393 0.03209613 -0.044333674

encoder.encode_blocks.0.s_feature.mlp2.mlp1.0.bias f4 [8]
00000000: 27d3 783b bbc1 63bc 45c6 f43c 831a 34bb
00000010: 6233 00bc 1933 22bd 84cb d1bb 3aee 02bd
0.0037967653 -0.013901169 0.029879699 -0.0027481623 -0.007824751 -0.03959951 -0.006402435 -0.03196547

encoder.encode_blocks.0.s_construct.gnn1_pool.convs.0.bias f4 [8]
00000000: 3ad5 82bd 02cd 4e3b 4d81 323b 48e1 83bc
00000010: e293 84bc cf3d 24bd 849b debc 59e9 f23b
-0.06388326 0.00315553 0.0027237714 -0.016098633 -0.016183797 -0.040098008 -0.027173765 0.007413071

encoder.encode_blocks.0.s_construct.gnn1_pool.convs.0.lin.weight f4 [8, 8]
00000000: e098 4a3e 5a70 7e3e 25a9 073f a38c c6be
00000010: 9e4b 9e3e f8cb de3c ad69 75be 21f4 033e
00000020: 012a ec3e bd66 16bf b9e6 d43e 41fd 283e
00000030: b723 9b3e 394d a53e 81c9 ecbe 2acd 17bf
00000040: 7807 763d e70a e33e 97c2 d43e 037d bf3d
00000050: 4a66 adbe 6699 efbd 44c9 ab3e 7e4a e4be
00000060: 0163 053f a571 923e 93df 533e 3294 5cbe
00000070: e496 bebe 6a25 06bf 2e08 2c3d 6a88 d23c
00000080: 1682 6dbe 9936 b73d 7dc8 1e3f 860b 09bf
00000090: 95f4 e33e e926 13bf 6126 f23e c610 77bd
000000a0: d9ea 0f3f 4e44 ed3d e397 3c3e 54e9 013e
000000b0: e545 ee3e 63ea aa3e 746a 55be 8266 ff3e
000000c0: 7272 12bf 377b 17bf 77b4 23bd c965 c8be
000000d0: fb5c 833e 3910 c4be dc03 183f 2361 cdbe
000000e0: 9e3e dcbc e781 1dbe 7a7e 9b3d 53ad f1be
000000f0: 0e5c 53be dcae bbbe 20df 61be 971f 8d3e
0.1978488 0.24847546 0.5299247 -0.38779172 0.30917066 0.02719687 -0.23966093 0.12886097
0.46125796 -0.58750516 0.41582277 0.16502859 0.30300686 0.3228548 -0.46247485 -0.5929743
0.060065717 0.44344255 0.4155471 0.09350016 -0.33867103 -0.1169918 0.3355199 -0.44588083
0.5210419 0.2860233 0.20690756 -0.21540907 -0.37224495 -0.5240084 0.04199999 0.025699813
-0.23194155 0.089459606 0.6202467 -0.5353321 0.4452254 -0.5748125 0.47294906 -0.06031873
0.56217724 0.11585294 0.18417315 0.12686664 0.465377 0.33381948 -0.2084139 0.49882895
-0.5720588 -0.59172386 -0.039967027 -0.39140156 0.25656876 -0.38293627 0.5938089 -0.40113172
-0.026885327 -0.15381585 0.07592483 -0.47202548 -0.20640585 -0.36656845 -0.22057772 0.27563164

encoder.encode_blocks.0.s_construct.gnn1_pool.convs.1.bias f4 [8]
00000000: 135d 02bd 92a8 693c 7567 b73b 68d5 5abc
00000010: 0436 b8bb 216b 67bc 0819 203c cad8 ffbb
-0.031827044 0.014261382 0.00559705 -0.013356544 -0.0056216735 -0.014124663 0.009771593 -0.0078078257

encoder.encode_blocks.0.s_construct.gnn1_pool.convs.1.lin.weight f4 [8, 8]
00000000: 4670 9e3e ab31 c43e a22c 2c3e 95f0 fc3e
00000010: 04c2 6f3e 3140 cabe cd60 18be 9fa0 e4be
00000020: fd95 a3be 88e6 1abf f3ee 703b 7af7 fabe
00000030: 8800 2c3e 2cd7 a8bb 4427 69bd 3b32 f43e
00000040: f63c c6be 3e65 303e a5d6 c23e 3f64 cabd
00000050: 40d3 003f 78e7 0d3e 7923 9d3d cead 9dbe
00000060: f48c a03e 05ee 1f3f fcd6 133e 9a0b 6a3e
00000070: 599f 933e 67f8 0f3f 02d3 b53e b6e7 10bf
00000080: 0560 813d 8ff3 963e 47ad a2be aa1a 43be
00000090: 9733 19be 5275 dc3e 35e1 07be 3424 283e
000000a0: 1119 62be 14ef d63e f1d8 9ebe bf1a fbbd
000000b0: 3552 e53d 84d2 acbe c4ea ab3d 7ffd 08bf
000000c0: 35dc cfbe fc28 8f3e 14e3 88be 4e3b 17be
000000d0: 0629 de3e 06db 95be 7342 833e a678 16bf
000000e0: 551f 0fbf 63c1 253e 980b 4d3e c3b2 a33e
000000f0: 5229 97be cc14 993e 947d a2be 7955 ecbe
0.30945033 0.38319144 0.16813901 0.494023 0.23413855 -0.395021 -0.14880677 -0.44653794
-0.3195037 -0.6050801 0.0036763519 -0.49016935 0.16797078 -0.0051526036 -0.056922212 0.47694573
-0.38718385 0.17226121 0.38054386 -0.09882402 0.5032234 0.1385783 0.076727815 -0.30796665
0.3135754 0.62472564 0.14437479 0.22855988 0.2883251 0.56238407 0.3551255 -0.5660356
0.063171424 0.29482695 -0.31772825 -0.1905314 -0.14961086 0.43058258 -0.13269503 0.1642006
-0.22079875 0.41979277 -0.31024888 -0.12260961 0.1119732 -0.3375436 0.08394387 -0.53511804
-0.40597692 0.27960956 -0.26735747 -0.14768717 0.43390673 -0.29268664 0.25636634 -0.58777845
-0.55907184 0.16187052 0.20023954 0.31972322 -0.29523712 0.2989868 -0.31736434 -0.4615896

encoder.encode_blocks.0.s_construct.gnn1_pool.convs.2.bias f4 [51]
00000000: 82fa b43c 8976 ac3b 5ae6 403d 08b2 46ba
00000010: 2c92 82bb dd8b 233c 5484 983d 4425 06bd
00000020: 4b35 513c 7018 84bd 21b9 383b 801e b23c
00000030: 5cbe a93c ccef 853c c398 f3bb 4b57 3e3d
00000040: aa1a 34bd c325 47bd 5880 113c d7b0 0fbc
00000050: cbce 653a 77d9 48bd e797 d03c a139 f93c
00000060: df47 613c 2eeb 7cbb 43bb 8bbc ba3e 35bd
00000070: 6501 8abc 33d0 183d 5117 a8bb 8270 aebc
00000080: 00fb 1d3b 9261 31bd 94b2 a5bd 13ef e5bb
00000090: b163 0ebd 7a3b b03c 6dc6 973c 50dd cdba
000000a0: 2bcf 4c3c f5d4 273c 2525 9dbb adda 433c
000000b0: ed72 cebc 4179 cabc dca0 85bc 3af6 e2bd
000000c0: 97c0 0c3d 5952 efbc 5a61 de3b
0.022092108 0.005263154 0.04709468 -0.00075796293 -0.00398471 0.0099820765 0.074471146 -0.032750383
0.012769054 -0.064499736 0.0028186517 0.02174306 0.020720653 0.016349696 -0.007433982 0.046469968
-0.04397074 -0.048619997 0.008880697 -0.008770189 0.00087664713 -0.049035516 0.025463058 0.030422987
0.013750046 -0.0038592326 -0.017057067 -0.044249274 -0.016846368 0.03730793 -0.0051297327 -0.021293882
0.0024105906 -0.04330594 -0.08090702 -0.0070170253 -0.034763042 0.021512736 0.018527234 -0.0015706215
0.012500565 0.010243644 -0.0047956877 0.011953992 -0.025201285 -0.024716021 -0.016312055 -0.1108212
0.034363355 -0.029214071 0.0067865076

encoder.encode_blocks.0.s_construct.gnn1_pool.convs.2.lin.weight f4 [51, 8]
00000000: 02bc 0a3e 7051 d13d a002 8ebe 8e51 0abe
00000010: 586e cb3d 137b 97be d8a1 f2bd 3ebd 803e
00000020: dad0 723d ed4b 56be 9c3e 75bc 08ed 073e
00000030: 6b53 6e3e de77 1dbe 19ab 8a3e c621 743e
00000040: da93 413e e67b 873d 5b91 b73d 622b 5cbe
00000050: 1211 233e 953c b5bd 8321 e4bd 2eaa 77be
00000060: 75e6 b53c ecc6 91bd e878 81be ffa0 6a3d
00000070: 864e 85bc ae94 bbbd 6607 033e dba2 27be
00000080: 29d4 653e 6a53 633e 4136 833e 0b19 923e
00000090: cd17 53be ab5f 3f3e fca5 2ebe b6f5 05be
000000a0: e759 95bd fc6a 823c 0b85 d3bd c906 b3bd
000000b0: 1932 46be 1fde 3e3e a055 90be 5608 833e
000000c0: 35a1 4c3e 841f 573e 8aaf 24be d9a0 e0bc
000000d0: 734f 02be 8190 d2bd 4a59 b0be bdea 213e
000000e0: 8ac4 e53d 20dc ebbd 9308 8a3b 3e8a 4ebe
000000f0: 6e82 193e f689 6ebd a564 7dbd 8ba8 81be
00000100: 7adf f93d 3326 41be 790c 503d de5d 423d
00000110: 48d4 dd3d 285c cb3c 0e37 07be 6823 8e3e
00000120: 44b1 883e 8b3c 65be 750f 9e3e 8297 f0bd
00000130: 38e0 27be 8663 8b3d fba2 1f3e c3b6 ba3c
00000140: aa6f 9ebe 4caf a2bd 5aeb 0c3e 30b6 053c
00000150: bc63 d2bd 05d4 3abe e949 9b3e 1325 0dbe
00000160: 9d37 143d bf7b 90be d078 7a3d d16b 9cbe
00000170: fdac 4cbe 8044 f63d ac30 253e 98fa 653e
00000180: db0a 84be e95a d23c b238 363e b4bc 33bd
00000190: d2c1 283e 21b3 c13d c69c 6c3e c693 71be
000001a0: be5a 9bbe eacb ecbc 439f 883e 5801 813d
000001b0: 1d15 87bd 9db0 4f3e 4d4e a8be 3c9e 0abe
000001c0: a0ca eabd 10a6 303e 033a 9cbe 0149 2bbe
000001d0: 8961 603e b1b1 2cbb 9c7d 0bbe e322 a1bd
000001e0: 8b7e 5a3e 5ddd 3b3e a960 97be f2dd 86be
000001f0: 5f86 933e d618 82be 0808 eebc 5a69 9e3e
00000200: b5a9 8e3e 5be8 553e 7141 993e 982e 78be
00000210: 57db 8e3d 74dd 723d 7ce1 b43d d9b8 00be
00000220: 7fc2 753d f9fb eabd 8778 a43e 353c c3bb
00000230: 51aa 11be c105 953e a58f 8e3c e61d 8fbc
00000240: f289 e8bd 60dd 62be 08ea 813e a219 b4ba
00000250: dc6f f7bc 3461 8bbe ae12 35be ca97 083e
00000260: eb5a 2f3e 50c5 193e 75be 253e 312f 2e3e
00000270: 4a53 9dbd e3c1 163e 6610 783c cc50 313e
00000280: 94c1 d6bd c1bf 3abe bed4 9abe 46a6 49bd
00000290: 72c6 36be bd71 5a3e 0a08 293d 6ec4 623e
000002a0: 8576 97be fe1d 1f3e 4bee 43bd 8035 a33e
000002b0: 8186 863e 181b 883e 9131 723e b413 f93d
000002c0: 8c80 073e a59c 19be 74e8 8c3e c4d0 633e
000002d0: a34c f2bd 75e9 f63c 7b3d 69be 96b8 b53d
000002e0: a6b0 363e 7f1d bb3d 79e7 5fbe 3c1b 8b3e
000002f0: 30a4 8bbe f8a2 053e 48ce 19be 7cb0 643e
00000300: 651f 023d 11c8 2b3e 3d6b afbd 98c6 28be
00000310: 28d0 48bd 8676 afbb c2fa be3c 1026 53be
00000320: d1c6 b33d a7a8 a9bd 08a4 38be cd85 27be
00000330: 96e1 a33e d25c 643e 181e 1bbc 584c 003e
00000340: e4d1 a03d 0760 913e 6b27 de3d af3b 06be
00000350: e700 5ebe 30ae 43bd 30a0 a43e 3fde 033e
00000360: db6d 523e 19fe b1bd bc03 9c3e 8a56 88bd
00000370: eca5 4f3d b111 2b3e a265 7b3e 720e 4c3e
00000380: 8648 77be ff0b 4abe 25b2 963e 7172 943d
00000390: c2ac bfbd 4cd4 a63e 2354 103e 1e60 6cbc
000003a0: 8839 adbd 2bbb 323d 8054 38be 6be2 153e
000003b0: 9d3a bbbd 4ec1 ad3e 5cf0 2f3e d674 d8bd
000003c0: e991 14be e9f3 83be fe0d ef3d c936 383d
000003d0: 5b08 293e cfaf 42be 390c 893e ccb6 5e3c
000003e0: bd34 e0bd f97a 81bd d301 443c 81db c4bd
000003f0: c733 643e c164 3d3e bbca c63d 2f75 3f3e
0.13548282 0.10220611 -0.27736378 -0.13507673 0.09933156 -0.29586086 -0.118472755 0.2514438
0.059281208 -0.20927401 -0.0149685405 0.13274014 0.23274009 -0.15377757 0.27083662 0.23841009
0.18904057 0.066154286 0.08963271 -0.21500924 0.1592448 -0.08849446 -0.11139204 -0.24186012
0.022204617 -0.071180195 -0.25287557 0.057282444 -0.016272794 -0.09159218 0.12795791 -0.16370718
0.22444214 0.22199789 0.2562733 0.2853473 -0.20614548 0.18688838 -0.17055506 -0.13082013
-0.07292538 0.015920155 -0.1032811 -0.087415285 -0.19355048 0.1863942 -0.28190327 0.25592297
0.1998337 0.21008116 -0.16082588 -0.027420448 -0.1272562 -0.10281468 -0.34443122 0.15812202
0.112191275 -0.11516595 0.004212448 -0.20169923 0.14991161 -0.05823704 -0.06186356 -0.253239
0.12200828 -0.18862228 0.050793145 0.0474528 0.10831505 0.024824217 -0.13204595 0.27761388
0.26697743 -0.22386377 0.30871168 -0.11747648 -0.16394126 0.06806092 0.15589516 0.022792226
-0.30944568 -0.079435915 0.13761654 0.008161113 -0.10272929 -0.18244942 0.30329826 -0.13783674
0.03618585 -0.2821941 0.061150372 -0.30551007 -0.19987865 0.12024784 0.16131848 0.22458875
-0.25789532 0.025678115 0.17795065 -0.043881133 0.16480187 0.09457994 0.2310668 -0.23591527
-0.30342668 -0.028905828 0.26684007 0.062990844 -0.06595824 0.20282216 -0.3287224 -0.13536924
-0.11464429 0.17250848 -0.3051301 -0.16727068 0.21912207 -0.002635103 -0.13622135 -0.07867982
0.21337335 0.18346162 -0.29565933 -0.26341206 0.28813455 -0.25409573 -0.029056564 0.30939752
0.2786385 0.20889418 0.2993274 -0.24236524 0.069754295 0.059293225 0.0883207 -0.12570514
0.05999994 -0.11473841 0.32123205 -0.005958105 -0.14225127 0.29105952 0.01740248 -0.017470311
-0.11354436 -0.2215476 0.25373864 -0.0013740549 -0.030204706 -0.27222598 -0.17682907 0.13339153
0.17124526 0.15016675 0.16185935 0.1701019 -0.07681902 0.147224 0.015140628 0.17315978
-0.10486141 -0.18237211 -0.30240434 -0.049230836 -0.17849138 0.2133245 0.041267432 0.22145244
-0.2958261 0.15538785 -0.047834676 0.31876755 0.26274493 0.2658317 0.2365172 0.12161961
0.1323263 -0.15001161 0.27521098 0.22247607 -0.118310235 0.030140618 -0.22777359 0.088730976
0.17840824 0.09136485 -0.21865644 0.27169216 -0.27273703 0.13050449 -0.15020096 0.22332948
0.03176822 0.16775538 -0.08565376 -0.16482008 -0.04902664 -0.0053547053 0.02331293 -0.20619988
0.087781556 -0.08284121 -0.18031323 -0.16359635 0.32008046 0.22301033 -0.009467624 0.12529123
0.078525335 0.28393576 0.10847362 -0.13108705 -0.21680032 -0.04777354 0.32153463 0.12877749
0.20549719 -0.086910434 0.304716 -0.06657131 0.050695345 0.16705967 0.24550489 0.19927385
-0.24148759 -0.19731139 0.29432788 0.072483905 -0.09359123 0.32583845 0.14094596 -0.014427213
-0.08458239 0.04363553 -0.18000984 0.14637153 -0.09142039 0.33936542 0.17181534 -0.1056916
-0.14508785 -0.25772026 0.11672591 0.044974122 0.16507094 -0.19012378 0.26767138 0.013593387
-0.10947559 -0.06322283 0.011963326 -0.096121795 0.22285376 0.18495466 0.097066365 0.18697046

encoder.encode_blocks.0.s_construct.gnn1_pool.bns.0.weight f4 [8]
00000000: 3fde 803f 746c 843f 4d49 803f fb99 7e3f
00000010: 5c32 803f 0da4 753f 7c82 763f 6151 7f3f
1.0067824 1.0345597 1.002237 0.99453706 1.0015368 0.95953447 0.96292853 0.9973355

encoder.encode_blocks.0.s_construct.gnn1_pool.bns.0.bias f4 [8]
00000000: 6691 96bc 6509 f8bc cf4e 953b f783 95bc
00000010: 2f29 e63b cf93 9e3b cfe8 303c f8bc 3e3c
-0.018379878 -0.030277917 0.004556514 -0.018251402 0.0070239524 0.0048393975 0.010797693 0.011641733

encoder.encode_blocks.0.s_construct.gnn1_pool.bns.0.running_mean f4 [8]
00000000: 5453 e33e 9970 fd3e 8ac3 4f3e c98c da3d
00000010: 2cbc 003f aaca 5a3e df73 803e 7677 1a3e
0.44399512 0.49499968 0.20289436 0.10671384 0.5028713 0.21366373 0.25088403 0.15084633

encoder.encode_blocks.0.s_construct.gnn1_pool.bns.0.running_var f4 [8]
00000000: 2760 5d3f 8050 293f 27b7 1e3e e382 043d
00000010: 25f4 943f 9b4c 8f3e 5d36 db3d 22a2 3c3d
0.8647484 0.6613846 0.15499555 0.032351386 1.1637007 0.27988133 0.10703728 0.04605306

encoder.encode_blocks.0.s_construct.gnn1_pool.bns.1.weight f4 [8]
00000000: 7982 843f 22be 833f d8bb 7f3f a6e9 803f
00000010: fd65 793f a9d0 7c3f 98a5 793f 169f 7b3f
1.0352317 1.0292399 0.99896 1.0071304 0.97421247 0.9875589 0.975183 0.9828962

encoder.encode_blocks.0.s_construct.gnn1_pool.bns.1.bias f4 [8]
00000000: 3e31 8cbc 4cff 4a3d 26f5 04bd 7df9 fa3c
00000010: 6d9d f5bc e811 14bc a842 4abd e199 c53c
-0.017113324 0.049559876 -0.032460354 0.030636543 -0.029982293 -0.009037472 -0.049379975 0.024121227

encoder.encode_blocks.0.s_construct.gnn1_pool.bns.1.running_mean f4 [8]
00000000: d1ac 973e 5a74 b13e e434 5e3e 8572 033f
00000010: 6545 7a3e 36aa d23e 162c db3e 9ed8 643e
0.29624036 0.34659082 0.21699864 0.5134662 0.24440534 0.41145486 0.42807072 0.22348258

encoder.encode_blocks.0.s_construct.gnn1_pool.bns.1.running_var f4 [8]
00000000: 3f50 db3e 72dc 023e df2b 613e f195 b63f
00000010: ab20 9a3e d44c 373e 5d10 323e 482d 503e
0.4283466 0.12779406 0.21989392 1.4264508 0.3010305 0.17900401 0.17389055 0.20329773

encoder.encode_blocks.0.s_construct.gnn1_pool.bns.2.weight f4 [51]
00000000: bc98 7c3f 58d5 7e3f 23fb 7a3f d487 7d3f
00000010: a265 7c3f 4b52 823f 46b9 7a3f 3f48 833f
00000020: 442c 833f d29a 7e3f 4d41 7f3f 7801 833f
00000030: 90de 793f aaf8 7d3f d3a0 783f 7ff9 803f
00000040: 9481 813f a8a1 803f 4504 813f 68e9 7e3f
00000050: 072c 833f c214 823f 686b 7e3f ea4b 7d3f
00000060: b2d8 7a3f 5549 823f 9625 7c3f e789 803f
00000070: 174f 803f 43fa 793f 4cf6 813f 1d51 853f
00000080: a39c 823f 9102 813f e0c5 7b3f 377d 823f
00000090: b7b1 7e3f d4ba 823f 3138 833f 89c2 803f
000000a0: 8f49 7e3f 33dd 783f fac9 803f a6cf 793f
000000b0: 4add 753f b710 813f 0b07 7d3f df04 7e3f
000000c0: 69c2 7d3f 958f 823f 7bfe 753f
0.98670554 0.99544287 0.98039454 0.9903538 0.9859258 1.0181364 0.97938955 1.0256423
1.0247884 0.9945499 0.99709016 1.0234823 0.9760523 0.99207556 0.971204 1.007614
1.0117669 1.0049334 1.0079428 0.995749 1.0247811 1.0162585 0.9938264 0.9894396
0.979869 1.0178629 0.9849485 1.0042084 1.0024136 0.97647494 1.0153289 1.0415379
1.0204052 1.0078908 0.9834881 1.0194463 0.9948992 1.0213265 1.0251523 1.0059367
0.9933099 0.97212523 1.0061638 0.9758247 0.96040785 1.0083226 0.9883887 0.9922618
0.9912477 1.0200068 0.9609143

encoder.encode_blocks.0.s_construct.gnn1_pool.bns.2.bias f4 [51]
00000000: 3f11 b8bd 480c 3bbc 3326 5ebd 31cc 833b
00000010: 4886 6fbd 6a28 9b3c 8f5b f9bc fb7d a53b
00000020: 679a 093c 62cb 3fbd aba3 b83c a23b 193d
00000030: 9fef 323d eade 49bd 21fa 2fbc e3b7 50bd
00000040: 1c9f 97bd a9c0 c3bc cb75 8abd 8b89 04bd
00000050: 0666 923d 7c87 253d ea77 84bd 3fda 32bd
00000060: bfbe ebbc 18f2 163c ac80 62bb 3aa7 9cbc
00000070: acc0 723c 5f1d 3a3d 5b96 193d bd09 123d
00000080: 54ab d6bc 9d76 18bc 4fd3 263b 2e47 553c
00000090: 0b87 29bd ee07 393d e26b 953d f57b 0d3d
000000a0: e556 10bc 99d2 a7bd 683e 52bd 6d62 24bd
000000b0: 4bdb fcbc 91c8 813d 6678 98bd d904 17bd
000000c0: 3a41 88bc f763 1a3d 759b b4bc
-0.089876644 -0.011416502 -0.05423565 0.0040221442 -0.05847767 0.01894017 -0.030439166 0.0050504184
0.008398629 -0.04682482 0.02253898 0.037410386 0.04368555 -0.049284853 -0.010740788 -0.050956618
-0.074033946 -0.023895578 -0.067607485 -0.032357734 0.07148366 0.04041241 -0.06468184 -0.043665167
-0.028777478 0.009212993 -0.0034561558 -0.019122709 0.014816444 0.045438167 0.037496906 0.03565382
-0.026204742 -0.009305623 0.002545554 0.013017459 -0.041388553 0.045173578 0.07295968 0.034542043
-0.00880978 -0.08194465 -0.051329046 -0.04013293 -0.030866286 0.06337083 -0.07444839 -0.036869857
-0.016632665 0.03769299 -0.022046784

encoder.encode_blocks.0.s_construct.gnn1_pool.bns.2.running_mean f4 [51]
00000000: 54a9 493e 3cca 633e 7fd7 3d3e 7763 b53d
00000010: def7 473e 7dff e73d ebde a23e 4d7c 853d
00000020: f3c4 673e ca43 243e c342 043e fc36 463e
00000030: dae8 1e3e ac1f ab3d 79db 443e f6ff 493e
00000040: 2610 8c3d 0dbb 133e ed08 203e b346 0d3e
00000050: 98bf 553e 7720 973e a446 7c3e a536 dc3d
00000060: efd1 433e 56d4 403e 26e5 f13d 1124 6f3e
00000070: 9851 813e fbeb 5c3e 9035 193e 67d1 633e
00000080: cb6b ae3e 22bd 223e bf8d 283e f65e 423e
00000090: 2b99 4c3e 4460 073e de8b 483e eb80 513e
000000a0: 1e11 2d3e fa4f 093e dca0 8e3d 8257 003e
000000b0: cbd8 133e 560d 033e 6603 be3d c919 e23d
000000c0: 9060 1a3e bb06 4a3e 4d1c 903e
0.196935 0.22245115 0.18539236 0.08856862 0.19528148 0.113280274 0.31810698 0.06517849
0.22633724 0.16041484 0.12916093 0.19356912 0.15518513 0.0835565 0.19224347 0.19726548
0.068390176 0.14426823 0.15628405 0.13796501 0.20873868 0.29516956 0.24636322 0.1075261
0.19123052 0.18831 0.11811285 0.23353602 0.25257564 0.21574394 0.14961839 0.2224785
0.34066615 0.15892461 0.16460322 0.18981537 0.19980304 0.13220316 0.19584605 0.20459335
0.16901061 0.13409415 0.06964275 0.12533382 0.14438169 0.12798056 0.09277992 0.110400744
0.15075898 0.1972913 0.28146592
